models/vit/model.pth (torch, 177526 bytes, 56 tensors)

pos_embedding f4 [1, 17, 4]
-1.0385659 -0.67337555 -0.32328337 1.5368086 0.6022502 -0.49632645 -0.44147322 0.692839
-0.7535582 -0.93315977 1.4649003 0.3400415 0.84580517 -0.43420148 -0.6828678 -0.9327913
0.4339645 0.3359294 0.79958606 0.86933535 1.6784099 1.6955312 0.6825976 -0.24578871
0.65787655 -0.37148896 -0.10764625 -1.3535414 0.25794923 0.4592228 0.5516925 -0.25193706
0.6432632 -0.30262923 1.0794662 -0.081665576 -1.7242085 0.2597585 -1.1973464 0.8989982
1.4452024 -0.49830562 -1.6887244 -1.380847 -0.27934715 -0.16686895 -0.7258905 -1.5968488
0.7887629 -1.3015347 -0.17041528 0.5636145 1.0743892 0.68043554 0.57761234 0.5567402
0.2453518 -0.53077066 -0.5718447 1.2321682 -0.17404124 -0.89327353 -0.5407949 -0.33261228
-1.4150435 0.5696841 -0.49843633 -0.57627034
00000000: baef 84bf 5762 2cbf 6685 a5be 25b6 c43f
00000010: 122d 1a3f 801e febe c708 e2be e65d 313f
00000020: 31e9 40bf 8fe3 6ebf da81 bb3f eb19 ae3e
00000030: b086 583f a84f debe 6dd0 2ebf 69cb 6ebf
00000040: 9830 de3e f0fe ab3e acb1 4c3f c38c 5e3f
00000050: 23d6 d63f 2b07 d93f b7be 2e3f 09b0 7bbe
00000060: 996a 283f cd33 bebe a375 dcbd d840 adbf
00000070: ec11 843e 401f eb3e b83b 0d3f e5fd 80be
00000080: e6ac 243f 38f2 9abe f32b 8a3f 4840 a7bd
00000090: ddb2 dcbf 11ff 843e a642 99bf bf24 663f
000000a0: 64fc b83f ea21 ffbe 1f28 d8bf 98bf b0bf
000000b0: 9706 8fbe b2df 2abe f6d3 39bf 8b65 ccbf
000000c0: 5eec 493f b098 a6bf 5881 2ebe 0a49 103f
000000d0: 9685 893f 0631 2e3f 67de 133f 8786 0e3f
000000e0: 813d 7b3e 96e0 07bf 6a64 12bf b0b7 9d3f
000000f0: de37 32be 93ad 64bf 8971 0abf 284c aabe
00000100: 2520 b5bf d1d6 113f 0c33 ffbe 7486 13bf

cls_token f4 [1, 1, 4]
0.87429434 -0.27261898 -1.0437908 -1.4931847
00000000: c1d1 5f3f b794 8bbe f09a 85bf ad20 bfbf

to_patch_embedding.1.weight f4 [3072]
0.96483976 0.958327 0.9922638 0.99692523 0.9972226 1.0240476 1.0138 1.0170598
1.0112526 0.9749544 0.98068476 1.0546534 1.0020409 1.0098073 1.0375656 1.0140241
0.99305475 1.0514913 0.95869654 0.97594774 1.0193577 1.0194792 0.9949469 1.0156173
0.9949318 0.96663487 1.0125909 1.0218185 1.0038302 0.98035616 1.0399227 0.9951337
1.0093864 1.0441598 1.0272194 1.0058637 1.0318285 0.9350406 0.9670562 1.0136924
1.0299911 1.0198838 1.0345048 1.0279595 1.0134503 1.0304466 1.0251949 1.0359348
1.0189728 1.0348178 1.0259969 1.0259929 1.0455484 1.0269914 1.0221937 1.037082
0.98701227 0.9911423 0.91777784 0.9815646 0.97817534 0.98907083 0.983331 1.0277063
1.0268513 1.0318635 0.98003566 0.99905825 0.98358023 1.0005894 0.97666705 0.9517767
0.95887464 0.9856981 1.0066323 0.99063015 0.98976016 1.0072789 1.0081631 0.96912515
0.96496433 0.9938764 0.9844974 0.98510325 1.014377 1.0060344 1.0219034 0.977014
0.9769383 1.0174248 1.0148568 0.9752203 1.0134971 1.0091332 0.9702433 1.0105172
0.9825986 1.0219579 1.0173451 0.9777073 0.9763444 0.99456346 1.0023429 1.0074137
0.9624978 0.966881 0.98954445 0.965818 0.95880055 0.9783701 1.0128475 0.97755533
0.9953808 0.99639684 0.9870643 0.9791645 0.96455085 0.99310553 0.9983781 1.008724
0.98613054 1.0058383 1.0259155 1.0024178 1.004882 0.98091286 0.98859805 0.96102506
0.9848312 0.9616544 0.9954476 0.9962402 0.97041416 0.972781 0.9510287 1.0017289
0.96224463 0.99838334 1.048257 1.0399652 1.0205992 1.0174708 1.0215952 1.005396
1.0414779 1.0192425 1.0212812 1.044161 1.009906 1.0421044 1.0351955 1.0454388
0.98939013 0.9881301 0.99489653 0.95412403 0.99162275 1.0094755 0.98523587 1.0225096
0.9962124 0.9944681 0.99728006 0.981578 0.997347 0.9466109 0.990592 0.97409385
1.0009518 0.9897057 0.96871376 0.9942943 0.97125584 1.0081353 1.0508118 1.0543492
1.0204123 0.99173987 1.0084628 1.0098599 0.95380664 0.95271003 0.97376853 0.9412715
0.9451093 0.9857657 0.97822136 0.95662826 0.96286 0.9480412 0.9979372 0.9893471
0.9945905 1.0022203 1.0364263 0.980656 0.9766986 0.98649734 0.9846694 0.9947892
0.98149514 0.9696978 1.0135434 0.95939523 1.0015017 1.0196564 1.0160493 0.99449754
1.0105908 0.9893987 1.005385 0.9708291 0.95278645 0.97808933 0.9983815 0.9982927
1.00102 1.0081904 0.9823362 1.0598202 1.0509046 1.0251064 0.9855634 1.011577
1.0052869 0.9909086 0.96050113 0.9856998 0.94608366 0.9628066 0.9871061 0.99580085
0.9397575 1.0167758 0.9533039 0.99755466 0.99246913 0.95668507 0.9414878 1.0049723
1.000609 0.9977227 0.95497197 1.0205469 0.9739192 0.9755002 1.0108387 1.0069426
1.0189279 0.94315183 0.99320406 1.0337179 0.9914498 1.0085185 0.99642915 1.0077764
00000000: bdff 763f eb54 753f 0005 7e3f 7e36 7f3f
00000010: fb49 7f3f fe13 833f 33c4 813f 042f 823f
00000020: ba70 813f 9d96 793f 280e 7b3f e2fe 863f
00000030: e042 803f 5e41 813f f3ce 843f 8bcb 813f
00000040: d638 7e3f 4497 863f 236d 753f b6d7 793f
00000050: 507a 823f 4b7e 823f d7b4 7e3f bfff 813f
00000060: dab3 7e3f 6275 773f 949c 813f f3ca 823f
00000070: 827d 803f 9ff8 7a3f 301c 853f 15c1 7e3f
00000080: 9333 813f 07a7 853f ed7b 833f 24c0 803f
00000090: f512 843f d25e 6f3f ff90 773f acc0 813f
000000a0: c0d6 833f 8d8b 823f a76a 843f 2d94 833f
000000b0: bdb8 813f ade5 833f 9639 833f 8399 843f
000000c0: b36d 823f e974 843f de53 833f bc53 833f
000000d0: 88d4 853f 7474 833f 3ed7 823f 1abf 843f
000000e0: d6ac 7c3f 80bb 7d3f 7df3 6a3f d147 7b3f
000000f0: b369 7a3f bf33 7d3f 95bb 7b3f e18b 833f
00000100: dd6f 833f 1a14 843f 9ee3 7a3f 48c2 7f3f
00000110: eacb 7b3f 5013 803f da06 7a3f a3a7 733f
00000120: cf78 753f b656 7c3f 54d9 803f f099 7d3f
00000130: ec60 7d3f 84ee 803f 7d0b 813f 9618 783f
00000140: e707 773f af6e 7e3f 0608 7c3f ba2f 7c3f
00000150: 1bd7 813f bcc5 803f bbcd 823f 971d 7a3f
00000160: a118 7a3f fa3a 823f d4e6 813f 0aa8 793f
00000170: 46ba 813f 472b 813f dd61 783f a158 813f
00000180: 958b 7b3f 84cf 823f 5d38 823f 074b 7a3f
00000190: b5f1 793f b69b 7e3f c64c 803f eff2 803f
000001a0: 4166 763f 8385 773f c952 7d3f d93f 773f
000001b0: f473 753f 7676 7a3f fda4 813f 1141 7a3f
000001c0: 47d1 7e3f dd13 7f3f 3fb0 7c3f 86aa 7a3f
000001d0: ceec 763f 2a3c 7e3f b595 7f3f de1d 813f
000001e0: 0d73 7c3f 4fbf 803f 3351 833f 3a4f 803f
000001f0: f99f 803f 1b1d 7b3f c314 7d3f bd05 763f
00000200: e61d 7c3f fc2e 763f a7d5 7e3f 9909 7f3f
00000210: 106d 783f 2d08 793f 9e76 733f a738 803f
00000220: aa55 763f 0d96 7f3f 492d 863f 941d 853f
00000230: ffa2 823f 7c3c 823f a2c3 823f d1b0 803f
00000240: 264f 853f 8a76 823f 58b9 823f 11a7 853f
00000250: 9a44 813f ad63 853f 4981 843f f0d0 853f
00000260: ac48 7d3f 18f6 7c3f 8ab1 7e3f 7941 743f
00000270: fdda 7d3f 7e36 813f 6b38 7c3f 98e1 823f
00000280: c707 7f3f 7695 7e3f bf4d 7f3f b248 7b3f
00000290: 2252 7f3f 1855 723f 7097 7d3f 375e 793f
000002a0: 301f 803f 5a5d 7d3f a0fd 773f 128a 7e3f
000002b0: 39a4 783f 940a 813f 0081 863f eaf4 863f
000002c0: df9c 823f aae2 7d3f 4f15 813f 1743 813f
000002d0: ac2c 743f cee4 733f e548 793f 2bf7 703f
000002e0: aff2 713f 245b 7c3f b76c 7a3f 97e5 743f
000002f0: fe7d 763f d4b2 723f d078 7f3f da45 7d3f
00000300: 7c9d 7e3f c148 803f 9ea9 843f 460c 7b3f
00000310: eb08 7a3f 178b 7c3f 4b13 7c3f 81aa 7e3f
00000320: 4443 7b3f 1d3e 783f cabb 813f ed9a 753f
00000330: 3531 803f 1a84 823f e70d 823f 6497 7e3f
00000340: 0a5b 813f 3c49 7d3f 75b0 803f 4288 783f
00000350: d0e9 733f 1064 7a3f ee95 7f3f 1c90 7f3f
00000360: 6c21 803f 620c 813f 637a 7b3f 30a8 873f
00000370: 0b84 863f b036 833f e24d 7c3f 5b7b 813f
00000380: 3ead 803f 30ac 7d3f 67e3 753f d256 7c3f
00000390: 8a32 723f 7e7a 763f fcb2 7c3f ceec 7e3f
000003a0: f393 703f b625 823f b90b 743f be5f 7f3f
000003b0: 7512 7e3f 50e9 743f 5805 713f efa2 803f
000003c0: f513 803f c16a 7f3f 0b79 743f 48a1 823f
000003d0: c552 793f 62ba 793f 2a63 813f 7fe3 803f
000003e0: 3b6c 823f 6672 713f 9f42 7e3f de50 843f
000003f0: a7cf 7d3f 2217 813f fb15 7f3f d1fe 803f

to_patch_embedding.1.bias f4 [3072]
-0.04525744 -0.054890897 0.000695489 -0.022005212 -0.026958726 -0.0046744407 -0.052704975 -0.05482243
-0.059143137 -0.049663678 -0.04013327 0.03226468 -0.023040352 0.051980402 -0.03461807 0.051980633
0.009812185 0.061521303 -0.039436642 0.034025703 0.06618943 0.060565416 0.046745162 0.06296726
0.050073262 0.05806756 0.059009816 -0.054228827 -0.044835743 0.045319743 -0.0679714 0.0068306676
-0.012464878 -0.06315174 -0.059086125 -0.0077472855 -0.054486565 0.052367188 0.051091466 -0.03786013
0.03270081 0.018079286 -0.043571915 -0.060348626 0.04919945 -0.066831924 -0.064028434 -0.0015644914
-0.07030284 -0.00791721 -0.004142989 -0.051366467 0.03151642 0.038472753 0.018578429 -0.02144272
0.046619307 0.0055259536 -0.019359935 0.055923253 0.021123005 -0.05499176 0.038882032 0.028583556
0.02691507 0.0067648003 -0.044253055 0.031004578 0.045049906 -0.06864862 0.012562446 0.040154576
-0.040849768 -0.052370843 0.05200695 0.029944161 -0.034357443 0.05409839 -0.060972974 -0.018932933
-0.010780098 -0.05187988 -0.039546397 0.022184798 -0.007266417 0.069806136 0.0735201 0.011952734
0.013381065 0.062392704 -0.03597249 0.0473067 -0.023947662 -0.052413955 -0.036658525 -0.024700295
0.040563535 0.051573485 0.045599584 -0.024301616 -0.012529632 0.021759463 0.030141907 0.023159713
-0.037964635 -0.04124397 0.01053172 -0.008056475 0.0016413889 -0.02237675 0.04299177 0.016390515
-0.040501833 -0.057704955 -0.06827244 -0.03855107 0.0520318 0.0438202 0.052616417 0.056612704
0.035333466 0.05549599 0.06169028 -0.05436797 0.0016179224 0.053889103 -0.06586683 0.02823571
0.057372045 -0.00983462 -0.01197754 0.05490978 -0.039930284 0.012710518 0.015020617 -0.05844947
-0.020753188 0.057652216 -0.075503424 -0.043008085 0.00879338 -0.07626059 -0.064155385 0.0478696
-0.073507145 -0.013754719 -0.063577585 -0.07165518 -0.04330726 -0.04461135 -0.06748603 -0.066203095
0.029779976 -0.031019846 0.05452466 0.015592178 -0.058263842 -0.060134698 0.04496884 -0.058165196
-0.052486155 -0.053102855 -0.04402242 -0.04484938 0.053372398 -0.031915747 -0.049481116 -0.031148747
-0.06235624 -0.04361983 -0.030283106 -0.049397532 0.0130536575 0.069274426 -0.049913503 -0.045891855
0.040208366 0.02125185 -0.041260343 -0.03268496 0.052350152 0.066866085 0.041177075 0.03721229
8.930896e-05 -0.02098824 -0.049102467 0.03993442 -0.020186357 -0.020347578 -0.05351944 0.0030394779
0.04542385 0.056012146 0.05614046 -0.06486372 0.0076566595 -0.053659603 -0.068556786 -0.048540283
0.03932652 -0.022772508 -0.00031222004 0.042775013 -0.054744884 -0.006397524 0.037965234 -0.030230684
-0.053056948 -0.021396246 -0.052719206 -0.015154245 0.01102435 0.010173361 0.053985257 0.05680224
0.019222178 -0.054618947 0.03881851 -0.05017585 -0.06522092 0.025827719 -0.03766874 0.06287506
0.04647366 0.03300588 -0.020080356 -0.020086586 0.027134556 -0.043913223 0.074587286 0.05206138
-0.023223855 0.06394709 -0.053449094 -0.049123768 -0.036036115 -0.0039053857 0.033334274 0.05906644
0.022467326 0.050215364 0.0072286655 -0.06298203 -0.044537056 0.026173016 -0.06312223 -0.058858763
0.021996504 -0.015512016 0.027399786 0.07181607 -0.036277667 -0.0005418282 0.019867385 -0.0654321
00000000: de5f 39bd 47d5 60bd 7a51 363a 4644 b4bc
00000010: 8cd8 dcbc 0d2c 99bb 2ce1 57bd 7c8d 60bd
00000020: 1340 72bd 246c 4bbd c962 24bd f827 043d
00000030: 1fbf bcbc 67e9 543d adcb 0dbd a5e9 543d
00000040: 49c3 203c c3fd 7b3d 5188 21bd 895e 0b3d
00000050: 538e 873d 7113 783d db77 3f3d fbf4 803d
00000060: 9f19 4d3d 40d8 6d3d 47b4 713d 0c1f 5ebd
00000070: afa5 37bd 32a1 393d 9734 8bbd cbd3 df3b
00000080: 7d39 4cbc b355 81bd 4b04 72bd f1dc fdbb
00000090: 4e2d 5fbd fa7e 563d 4945 513d 3913 1bbd
000000a0: 49f1 053d 031b 943c 7778 32bd 1f30 77bd
000000b0: 5d85 493d 2ddf 88bd 5721 83bd 9f0f cdba
000000c0: effa 8fbd 30b7 01bc e9c1 87bb a565 52bd
000000d0: 5d17 013d 9b95 1d3d ca31 983c a5a8 afbc
000000e0: e3f3 3e3d 0f13 b53b ba98 9ebc c80f 653d
000000f0: 270a ad3c 0a3f 61bd c442 1f3d 1028 ea3c
00000100: fe7c dc3c 42ab dd3b b142 35bd 50fd fd3c
00000110: 4086 383d a697 8cbd b8d2 4d3c 2079 243d
00000120: 1652 27bd cf82 56bd 3d05 553d 754d f53c
00000130: 64ba 0cbd 4696 5d3d ccbe 79bd 3d19 9bbc
00000140: 029f 30bc ff7f 54bd 67fb 21bd e5bc b53c
00000150: 201b eebb 85f6 8e3d b591 963d 66d5 433c
00000160: 413c 5b3c 7e8f 7f3d e457 13bd acc4 413d
00000170: e32d c4bc 04b0 56bd 4027 16bd 4658 cabc
00000180: f325 263d b83e 533d a1c6 3a3d 2f14 c7bc
00000190: 1649 4dbc e740 b23c 29ec f63c 70b9 bd3c
000001a0: ce80 1bbd 70ef 28bd 3c8d 2c3c 4eff 03bc
000001b0: df23 d73a 724f b7bc 2318 303d 6745 863c
000001c0: 40e5 25bd 085c 6cbd 6cd2 8bbd bae7 1dbd
000001d0: 4c1f 553d cf7c 333d 5084 573d b9e2 673d
000001e0: d3b9 103d c34f 633d f2ae 7c3d f3b0 5ebd
000001f0: 7810 d43a d2ba 5c3d 30e5 86bd 934e e73c
00000200: f3fe 6a3d 6321 21bc 723d 44bc 14e9 603d
00000210: f08d 23bd c73f 503c 0919 763c b668 6fbd
00000220: 9702 aabc bb24 6c3d 8aa1 9abd 3f29 30bd
00000230: 1c12 103c 832e 9cbd e663 83bd ea12 443d
00000240: ea8a 96bd 795b 61bc f734 82bd f3bf 92bd
00000250: f462 31bd 64ba 36bd 1e36 8abd 7d95 87bd
00000260: 23f5 f33c 551d febc 4055 5f3d 5676 7f3c
00000270: 11a6 6ebd cd4f 76bd 3f31 383d a13e 6ebd
00000280: b9fb 56bd 6182 59bd da50 34bd fcb3 37bd
00000290: 049d 5a3d 16ba 02bd b6ac 4abd a82b ffbc
000002a0: 4269 7fbd b5aa 32bd 4714 f8bc 1155 4abd
000002b0: 02df 553c c0df 8d3d 1a72 4cbd 19f9 3bbd
000002c0: 87b1 243d 5c18 ae3c 9b00 29bd aae0 05bd
000002d0: 1d6d 563d 16f1 883d 4ba9 283d ea6b 183d
000002e0: 624b bb38 88ef abbc ab1f 49bd 4692 233d
000002f0: dc5d a5bc f7af a6bc 3337 5bbd fa31 473b
00000300: 5c0e 3a3d fe6c 653d 8af3 653d 45d7 84bd
00000310: b7e4 fa3b 2cca 5bbd 8067 8cbd 2dd2 46bd
00000320: d814 213d 698d babc 77b1 a3b9 da34 2f3d
00000330: 2c3c 60bd 52a2 d1bb 6f81 1b3d 57a6 f7bc
00000340: 3e52 59bd 2e47 afbc 18f0 57bd 8349 78bc
00000350: 7a9f 343c 2bae 263c a51f 5d3d 77a9 683d
00000360: d477 9d3c 1eb8 5fbd 2800 1f3d 3185 4dbd
00000370: 8c92 85bd a794 d33c 894a 1abd a4c4 803d
00000380: 2a5b 3e3d 2c31 073d 8f7f a4bc a08c a4bc
00000390: 4a49 de3c 5ade 33bd 38c1 983d 503e 553d
000003a0: f43f bebc b1f6 823d 70ed 5abd 0136 49bd
000003b0: 9b9a 13bd 80f1 7fbb 8589 083d a7ef 713d
000003c0: 660d b83c a0ae 4d3d 71de ec3b b9fc 80bd
000003d0: 7d6c 36bd cb68 d63c 3a46 81bd e315 71bd
000003e0: 0332 b43c 1c26 7ebc 8475 e03c 4e14 933d
000003f0: e497 14bd 7a09 0eba edc0 a23c 4401 86bd

to_patch_embedding.2.weight f4 [4, 3072]
-0.0063563376 -0.017970014 -0.020015039 0.028125005 0.02773297 0.00794584 0.031057257 -0.004863983
0.002381509 -0.0035723904 -0.023666244 -0.057593774 -0.013642721 -0.031620167 -0.017668588 -0.04254316
-0.036911685 -0.062074475 0.0016574094 -0.016267601 -0.032390002 -0.046617772 -0.025025135 -0.05182518
-0.028917449 -0.027857905 -0.048184134 0.042768937 0.032367866 0.0012700534 0.047045395 0.028939905
0.04181096 0.060538325 0.039959516 0.01737844 0.062344655 0.0044902973 -0.008230115 -0.0066050435
-0.053442147 -0.04088293 -0.009173317 0.008828914 -0.04301893 0.031012448 0.018783819 -0.021797342
0.032355428 0.009944016 -0.0021003617 -0.03478275 -0.04941126 -0.047085825 -0.041754644 -0.028984666
-0.03407629 0.008015408 0.0024956164 -0.02352679 -0.008623131 0.006472732 -0.030788984 0.0067221737
0.012129472 0.015790174 -0.0038636595 -0.023422854 -0.028271869 0.004367895 0.0031590294 -0.009013421
-0.009476412 -0.0025714296 -0.038163207 -0.023655482 -0.009614704 -0.029769935 0.036636975 0.009306974
0.0071434127 0.027995508 0.020101938 -0.0010213838 -0.022205275 -0.0230987 -0.036402963 -0.03305949
-0.02364446 -0.048886087 -0.021774754 -0.023813372 -0.019329714 -0.011857712 -0.012132178 -0.029324098
-0.02315141 -0.047314264 -0.037918523 0.022319816 -0.004852741 -0.0011279992 0.023597304 0.0076822285
0.008219062 0.0057336865 -0.014987705 -0.012246118 -0.009843013 -0.026739052 -0.042955 0.00013937196
0.014910112 0.015965171 -4.637979e-05 0.013233459 -0.017519226 -0.020218348 -0.01120471 -0.04499204
-0.013103935 -0.03001035 -0.054163225 0.038876135 -0.0030212232 0.0019839276 0.0095947785 -0.018237336
-0.02183694 -0.0022869196 0.0064983573 -0.031033788 0.004577717 -0.0076345005 -0.021780808 0.013538527
-0.0041402206 -0.040888768 0.018738661 0.025119416 -0.0048857327 0.014516158 0.0041454146 -0.009835414
0.017512055 -0.0011688662 0.0170072 0.0024659676 0.0052919257 -0.0018584736 0.034185246 0.007547861
-0.019920006 -0.015056268 -0.03348891 -0.016335387 -0.0039358875 0.023306817 -0.013251655 0.045793697
0.017292436 0.0174362 -0.002506251 0.0013795668 -0.013513075 0.001152612 -0.00011968027 0.0037492467
0.02426992 0.01190228 -0.0035421352 0.0141499145 -0.008513523 -0.015385179 0.031537205 0.0470529
0.015760288 0.0012515371 0.03106298 0.014720007 -0.011717562 -0.007006187 -0.0046852594 0.0058921045
0.019696202 0.01756027 0.0045696655 -0.010855152 0.008048807 -0.007193838 0.0075532077 -0.021608956
-0.014729881 -0.028369946 -0.027446678 0.022272782 0.0048497175 -0.008076199 0.0278893 0.0331582
-0.016084109 0.009616921 -0.0012583061 -0.0013636712 -0.016376859 -0.0091957655 -0.014588327 0.01785462
0.028127102 0.015873406 0.032314677 0.021625757 0.010188857 -0.013277144 -0.01402166 -0.023387153
-0.006017826 0.01786864 -0.0130645465 0.04108768 0.040810943 0.015932534 -0.0037973975 -0.028878909
-0.019333983 -0.022727748 -0.0016588455 -0.012548544 -0.017241316 0.0021117318 -0.025657391 -0.033926252
-0.0039323326 -0.044667102 0.013367209 0.024776392 0.01806964 -0.014643651 -0.006937985 -0.03225324
-0.017139768 -0.02582199 -0.013654331 0.02830002 -0.0026936464 -0.008209976 0.04351685 0.028811648
-0.0022210553 -0.01541859 -0.0391906 -0.051054373 -0.02039038 -0.019195648 -0.037265453 0.01881727
00000000: d348 d0bb da35 93bc 94f6 a3bc 6966 e63c
00000010: 4130 e33c 452f 023c ca6b fe3c 0c62 9fbb
00000020: 1713 1c3b c41e 6abb b6df c1bc 73e7 6bbd
00000030: b885 5fbc 2684 01bd b7bd 90bc bd41 2ebd
00000040: b530 17bd ce41 7ebd 6e3d d93a a243 85bc
00000050: 61ab 04bd 47f2 3ebd 8301 cdbc a446 54bd
00000060: 49e4 ecbc 4336 e4bc ba5c 45bd 7b2e 2f3d
00000070: 2b94 043d ec77 a63a acb2 403d 6113 ed3c
00000080: f841 2b3d 09f7 773d 97ac 233d 3b5d 8e3c
00000090: 1c5d 7f3d 5823 933b 9bd7 06bc 1f6f d8bb
000000a0: 27e6 5abd dc74 27bd ae4b 16bc 26a7 103c
000000b0: 9e34 30bd d10d fe3c 86e0 993c 5790 b2bc
000000c0: 2087 043d 3aec 223c 39a6 09bb 5b78 0ebd
000000d0: 7663 4abd 11dd 40bd eb06 2bbd 4071 edbc
000000e0: 9493 0bbd 0f53 033c 7f8d 233b 41bb c0bc
000000f0: 0848 0dbc 3619 d43b 2e39 fcbc ae45 dc3b
00000100: b1ba 463c 655a 813c 7335 7dbb 49e1 bfbc
00000110: 689a e7bc 8f20 8f3b b807 4f3b 07ad 13bc
00000120: f442 1bbc 6e85 28bb 0651 1cbd 24c9 c1bc
00000130: fe86 1dbc 14e0 f3bc a710 163d 477c 183c
00000140: 4a13 ea3b d656 e53c d2ac a43c f4df 85ba
00000150: d6e7 b5bc 7c39 bdbc 461b 15bd 6369 07bd
00000160: 07b2 c1bc c73c 48bd f860 b2bc 4314 c3bc
00000170: 5959 9ebc d946 42bc 0bc6 46bc 1739 f0bc
00000180: 07a8 bdbc 9acc 41bd 7450 1bbd 0cd8 b63c
00000190: be03 9fbb 5fd9 93ba 224f c13c 34bb fb3b
000001a0: 3fa9 063c a6e1 bb3b fe8e 75bc f1a3 48bc
000001b0: 9744 21bc db0b dbbc 95f1 2fbd 6024 1239
000001c0: 8b49 743c 64c9 823c ec87 42b8 26d1 583c
000001d0: 7b84 8fbc f3a0 a5bc f693 37bc 9349 38bd
000001e0: e3b1 56bc 44d8 f5bc 42da 5dbd 953c 1f3d
000001f0: b7ff 45bb c804 023b 6b33 1d3c 7766 95bc
00000200: 62e3 b2bc 25e0 15bb 2cf0 d43b 923a febc
00000210: ac00 963b d52a fabb aa6d b2bc b3d0 5d3c
00000220: b0aa 87bb fb7a 27bd d281 993c 3cc7 cd3c
00000230: 7f18 a0bb 2ed5 6d3c 42d6 873b b724 21bc
00000240: 7175 8f3c a434 99ba af52 8b3c 129c 213b
00000250: e467 ad3b 0798 f3ba d405 0c3d 0c54 f73b
00000260: 482f a3bc 91ae 76bc ab2b 09bd cad1 85bc
00000270: 9ef8 80bb f0ed be3c 781d 59bc 2c92 3b3d
00000280: dea8 8d3c 5dd6 8e3c ea3f 24bb 95d2 b43a
00000290: f265 5dbc 3e13 973a dbfc fab8 ecb5 753b
000002a0: b6d1 c63c c801 433c 2b23 68bb 0bd5 673c
000002b0: 4e7c 0bbc 1e12 7cbc 282d 013d 8bba 403d
000002c0: b81b 813c 9e0a a43a ca77 fe3c 2f2c 713c
000002d0: 04fb 3fbc 2894 e5bb ce86 99bb 8e12 c13b
000002e0: ee59 a13c 8eda 8f3c 22bd 953b cfd9 31bc
000002f0: 25df 033c 49ba ebbb e680 f73b 4405 b1bc
00000300: 9955 71bc 1768 e8bc dbd7 e0bc 6975 b63c
00000310: 61ea 9e3b 0952 04bc 1a78 e43c e5d0 073d
00000320: d2c2 83bc 4a90 1d3c bfed a4ba 36bd b2ba
00000330: c328 86bc d6a9 16bc e103 6fbc da43 923c
00000340: cf6a e63c f208 823c 655c 043d 8028 b13c
00000350: 2aef 263c 6188 59bc 1bbb 65bc 6a96 bfbc
00000360: 2f31 c5bb 4161 923c ae0c 56bc 8e4b 283d
00000370: 6029 273d f284 823c c2dd 78bb 7693 ecbc
00000380: 4d62 9ebc 8b2f babc 9e6d d9ba 6998 4dbc
00000390: a93d 8dbc fb64 0a3b 732f d2bc 41f6 0abd
000003a0: ccda 80bb daf4 36bd 2302 5b3c dcf7 ca3c
000003b0: c806 943c edeb 6fbc 0958 e3bb f91b 04bd
000003c0: b368 8cbc a388 d3bc 6ab6 5fbc 72d5 e73c
000003d0: e387 30bb 2383 06bc b93e 323d 6806 ec3c
000003e0: 208f 11bb 419e 7cbc 5386 20bd 641e 51bd
000003f0: ba09 a7bc 3140 9dbc a9a3 18bd ad26 9a3c

to_patch_embedding.2.bias f4 [4]
-0.06683388 0.06097051 0.047418587 -0.019929254
00000000: 34e0 88bd 37bc 793d fe39 423d ad42 a3bc

to_patch_embedding.3.weight f4 [4]
1.0786434 1.0228379 1.0291443 1.0305884
00000000: fd10 8a3f 5aec 823f 00bb 833f 52ea 833f

to_patch_embedding.3.bias f4 [4]
0.0046229777 0.021088785 -0.01720793 -0.010947169
00000000: 597c 973b 63c2 ac3c a5f7 8cbc c15b 33bc

transformer.norm.weight f4 [4]
1.241361 1.2596947 1.1732306 1.241495
00000000: ebe4 9e3f ad3d a13f 6c2c 963f 4fe9 9e3f

transformer.norm.bias f4 [4]
-0.12312216 -0.12908694 0.12001175 0.12035526
00000000: 7927 fcbd 5e2f 04be b8c8 f53d d27c f63d

transformer.layers.0.0.norm.weight f4 [4]
1.0015552 0.9682564 0.9907706 0.9700842
00000000: f632 803f a7df 773f 24a3 7d3f 7057 783f

transformer.layers.0.0.norm.bias f4 [4]
0.010632816 0.034860227 -0.012903404 -0.005692259
00000000: 4335 2e3c 99c9 0e3d cd68 53bc 2186 babb

transformer.layers.0.0.to_qkv.weight f4 [768, 4]
-0.1437592 0.29736033 -0.26052564 0.4338429 0.45097938 0.16030405 0.25186014 0.19550754
0.3179399 -0.18547791 0.10865268 0.27196017 -0.45045522 0.47872895 0.31159773 -0.282714
0.24211481 0.23681748 0.0049405056 -0.34299365 0.30538094 -0.27590382 0.42580086 -0.4907701
0.10893381 -0.24545127 0.20863515 0.3073971 -0.25157604 0.30096656 0.13635232 -0.2743793
-0.14215712 0.17146803 0.38035727 -0.41071287 -0.1905437 0.325779 -0.06909324 0.22407193
-0.14226098 0.17132385 0.31905222 0.5094653 0.00295851 0.47339746 -0.23756053 -0.4854516
0.2809702 0.39767438 0.29994085 0.29663315 -0.2551168 -0.43918735 0.116196014 -0.21840736
-0.26911235 -0.47927293 -0.069663174 0.15783381 -0.14885695 0.43905976 -0.36533564 -0.2666455
0.42015162 0.09144453 0.47623414 -0.2355912 -0.30932698 -0.00075710606 -0.45411065 0.31165642
-0.44187045 -0.3514771 -0.35689634 0.01919453 0.26937068 -0.47229388 -0.100508556 -0.39723983
0.17850547 0.4275733 -0.023244109 0.47668165 0.40700853 -0.41650337 -0.33428934 -0.117122695
0.22763447 -0.06477413 0.22848862 0.01748997 0.06356601 -0.16278529 0.31548268 -0.3428226
-0.17064703 0.2714439 0.056175046 -0.3674635 0.09020792 0.092508614 -0.0043063764 -0.39782715
-0.041686967 -0.3387228 0.44785005 -0.38353825 -0.37785408 0.33335108 -0.12682779 0.37356344
0.13183741 -0.45971304 0.19308843 -0.2626066 -0.39279252 0.49346712 -0.46930826 -0.2009345
0.38227674 -0.35380313 0.07613511 0.3556312 -0.44799757 0.09349926 0.13578494 0.07109592
-0.48127505 0.18695748 0.31280994 -0.19436345 -0.47044617 0.17460637 -0.22609636 -0.36123848
0.2281052 0.33615634 0.31438956 0.48844472 -0.30885488 -0.3633952 -0.18779992 0.1126865
0.29582334 -0.35639513 -0.39349025 0.42169937 0.20853098 0.34408614 0.31755915 0.08132185
0.19562069 -0.31469423 0.01878494 -0.12915711 -0.2454969 0.45976216 -0.22826004 0.25104362
0.28658938 -0.43119094 -0.37046516 -0.46483684 0.08229845 -0.25032923 0.42197618 0.2531465
-0.22822094 -0.39833003 -0.44154784 -0.092982724 0.061322454 0.14392048 0.44895467 -0.31725532
-0.3544532 -0.37530038 -0.25937197 -0.2617481 0.16215248 -0.46143728 -0.26531976 0.16793032
0.28617477 -0.37931585 -0.2848867 0.046281267 -0.41679806 0.4023172 0.058296327 -0.3823729
-0.07525183 0.058497764 0.23761313 -0.14672151 -0.056879874 0.29957518 -0.45957667 0.18346871
-0.31882682 0.25260022 0.03731833 0.42599216 0.47156236 0.43635058 -0.34889886 0.35716826
-0.21384284 0.32775888 -0.42360628 0.0896017 -0.2756192 -0.13398333 -0.36078393 -0.17358713
0.19608524 -0.4353402 0.023237457 -0.19094375 -0.34391913 -0.05931741 0.05019053 -0.09300011
-0.3010658 0.25212067 0.29812765 -0.2721093 0.29072455 -0.35945114 0.07541582 -0.2614423
-0.28428343 -0.17623906 -0.24872997 0.12330249 -0.2946209 -0.29694316 -0.1467228 -0.17975084
0.013568225 -0.15118924 -0.16617306 0.12528901 0.4809557 -0.12427043 -0.39808276 0.19080552
-0.41519246 -0.24822833 0.0584296 0.054421704 -0.4301185 0.26720735 0.34901822 0.22119361
00000000: 9d35 13be 9d3f 983e 9e63 85be a820 de3e
00000010: c5e6 e63e bf26 243e d0f3 803e 2133 483e
00000020: 05c9 a23e eced 3dbe 4c85 de3d 5d3e 8b3e
00000030: 11a2 e6be f61b f53e bd89 9f3e e4bf 90be
00000040: f2ec 773e 4880 723e f7e3 a13b dd9c afbe
00000050: e45a 9c3e 4443 8dbe 9202 da3e 3846 fbbe
00000060: b018 df3d 9457 7bbe 74a4 553e 2763 9d3e
00000070: 93ce 80be 4a18 9a3e f19f 0b3e 727b 8cbe
00000080: a391 11be 5195 2f3e 30be c23e f548 d2be
00000090: e31d 43be 81cc a63e c280 8dbd 1d73 653e
000000a0: ddac 11be 856f 2f3e d05a a33e 516c 023f
000000b0: 90e3 413b 2761 f23e 1143 73be 1d8d f8be
000000c0: 53db 8f3e fa9b cb3e d991 993e 4de0 973e
000000d0: ab9e 82be 2add e0be 2df8 ed3d 2ea6 5fbe
000000e0: 18c9 89be 4363 f5be 91ab 8ebd 309f 213e
000000f0: f56d 18be 71cc e03e 460d bbbe c285 88be
00000100: 1d1e d73e 4547 bb3d f6d4 f33e d23e 71be
00000110: 1b60 9ebe 8778 46ba 3181 e8be 6e91 9f3e
00000120: d83c e2be cef4 b3be 1ebb b6be d93d 9d3c
00000130: f4ea 893e 81d0 f1be 6ed7 cdbd 0563 cbbe
00000140: 23ca 363e e3ea da3e 6e6a bebc 9e0f f43e
00000150: 6c63 d03e ee3f d5be f927 abbe 06de efbd
00000160: 0319 693e 4da8 84bd ecf8 693e 2047 8f3c
00000170: e52e 823d 30b1 26be f286 a13e 7286 afbe
00000180: 18be 2ebe b2fa 8a3e ce17 663d 2d24 bcbe
00000190: eebe b83d 2875 bd3d 811c 8dbb 00b0 cbbe
000001a0: f4bf 2abd 136d adbe 9a4c e53e 205f c4be
000001b0: 1776 c1be feac aa3e 25df 01be b543 bf3e
000001c0: 6300 073e 825f ebbe f9b8 453e 5f74 86be
000001d0: 1a1c c9be b9a7 fc3e 2c49 f0be c6c1 4dbe
000001e0: c7b9 c33e af25 b5be b9ec 9b3d 4b15 b63e
000001f0: f05f e5be 8a7c bf3d 350b 0b3e bd9a 913d
00000200: af69 f6be c871 3f3e a028 a03e 3607 47be
00000210: 52de f0be 03cc 323e ce85 67be 40f4 b8be
00000220: 6994 693e af1c ac3e abf7 a03e 6d15 fa3e
00000230: 3a22 9ebe f00e babe 9f4e 40be 2ec8 e63d
00000240: 2876 973e 6c79 b6be 8e77 c9be fbe8 d73e
00000250: 2589 553e 0f2c b03e 1d97 a23e 128c a63d
00000260: ca50 483e 9a1f a1be e0e2 993c c341 04be
00000270: 8a63 7bbe f265 eb3e 00bd 69be ca88 803e
00000280: d8bb 923e 0fc5 dcbe 9cad bdbe 18ff edbe
00000290: 178c a83d 272b 80be 430d d83e 6b9c 813e
000002a0: c0b2 69be eaf1 cbbe 8f12 e2be ba6d bebd
000002b0: 412d 7b3d e45f 133e 63dd e53e 4a6f a2be
000002c0: e47a b5be 5f27 c0be 67cc 84be d903 86be
000002d0: 4d0b 263e 8241 ecbe fed7 87be edf5 2b3e
000002e0: 8085 923e b035 c2be abdc 91be 6d91 3d3d
000002f0: 8e66 d5be 85fc cd3e 21c8 6e3d 61c6 c3be
00000300: a21d 9abd 5a9b 6f3d db50 733e 2a3e 16be
00000310: dffa 68bd eb61 993e a24d ebbe 39df 3b3e
00000320: 453d a3be d154 813e 1bdb 183d a51b da3e
00000330: 9f70 f13e 5869 df3e dfa2 b2be c2de b63e
00000340: 9ef9 5abe 03d0 a73e ece2 d8be 1981 b73d
00000350: f61d 8dbe ed32 09be acb8 b8be d3c0 31be
00000360: 92ca 483e e9e4 debe 7b5c be3c c286 43be
00000370: 2b16 b0be d0f6 72bd 9694 4d3d d776 bebd
00000380: 4c25 9abe f615 813e 30a4 983e e951 8bbe
00000390: d9d9 943e fb09 b8be 9c73 9a3d c4db 85be
000003a0: 998d 91be 0378 34be 12b3 7ebe 0486 fc3d
000003b0: 8dd8 96be ef08 98be 803e 16be 9b10 38be
000003c0: 434d 5e3c 5ad1 1abe 4529 2abe c34b 003e
000003d0: d33f f63e 7f81 febd 81d1 cbbe 8662 433e
000003e0: 1b94 d4be 912f 7ebe e053 6f3d 4be9 5e3d
000003f0: 7e38 dcbe 67cf 883e 84b2 b23e 9480 623e

transformer.layers.0.0.to_out.0.weight f4 [4, 256]
0.06753108 0.012917039 0.020470142 0.034401525 0.02554461 0.029898066 0.006231133 -0.06466727
0.0081758145 -0.033362534 0.015859284 -0.023590997 0.016313216 -0.055620797 -0.0047162883 0.003874841
-0.047647063 0.030171277 -0.009794019 -0.012158311 -0.0042868736 -0.0062592947 -0.023153404 -0.00078502216
-0.017671589 -0.059103828 -0.0038210782 0.015883682 0.012423771 -0.0059380583 -0.035059046 0.038875304
-0.0122589795 0.025620515 -0.037250187 0.019053737 -0.05312819 0.00284284 -0.02990481 0.0661116
-0.031844582 0.012458787 0.052138355 0.021088414 0.022591913 -0.00296069 -0.047730494 0.050614852
0.008336735 -0.03747895 0.074550055 -0.03673784 -0.02749827 0.06626987 -0.052568648 0.036470328
-0.01824052 0.059665404 0.053220198 -0.0054305326 0.041580357 0.05882489 -0.06302842 0.007583832
-0.058679406 -0.008840507 -0.048375454 0.028537635 0.08413278 0.0839798 -0.0037233178 0.004402571
0.008006804 -0.035974093 0.033814766 -0.02319124 0.043715674 0.056982677 0.027428946 0.008243429
0.030957488 -0.094234854 -0.0047100876 -0.048530042 0.011382808 -0.022073397 -0.056693118 -0.026563525
-0.0031865383 -0.057812724 0.026189832 -0.07224569 0.017091943 -0.052742943 -0.056228418 0.014234257
-0.011946046 0.006683948 0.015866242 -0.05058839 -0.046182208 -0.030678388 -0.034071553 0.038102772
0.0423456 -0.0031327677 -0.070714556 0.024486024 0.0134026 0.042640902 0.0014314873 0.0932926
-0.031460546 -0.06778003 0.016272437 0.07926083 -0.06572134 0.0133965565 -0.044653382 -0.041487698
0.038497802 -0.035264146 -0.025085885 -0.06876604 -0.012747043 -0.046973284 -0.08908797 0.031737644
0.05353667 -0.02404922 0.07229658 0.04272544 -0.0051045166 0.06398077 -0.0017356722 -0.0442295
-0.01126804 0.017266275 -0.013422143 -0.048610877 0.0057728686 -0.02519335 -0.060728 -0.038080867
0.044332474 0.06003014 -0.008108813 0.007401455 -0.033539183 0.025310947 0.084563375 0.02707605
-0.06929658 0.055786967 -0.0692953 -0.0061871675 -0.009381952 0.03334625 0.020547643 0.05022732
-0.07127998 -0.05214374 0.0122960685 0.0006981328 0.025973493 0.044358496 -0.03234237 0.04301688
-0.0069604428 -0.055494566 0.07876251 -0.044452235 0.009854427 -0.064730816 -0.066793054 -0.07450244
0.049918372 0.029180728 -0.008627292 0.046527103 -0.013966326 -0.042486798 0.05607577 0.055478707
0.07188552 0.01618015 -0.051262595 0.053279985 -0.050023105 0.04146266 -0.04884165 -0.03801105
-0.004536166 0.0384916 0.020763896 -0.0076452587 -0.025404977 -0.04135959 0.015098339 0.030441377
-0.026477018 -0.007845198 -0.04302961 -0.061956126 0.03283811 -0.05538743 0.058439802 0.036926284
0.043171067 -0.025532294 -0.0675907 0.06399668 -0.037147246 -0.02817883 0.0013565106 0.03307794
0.060901545 0.06512944 0.042436715 -0.02228867 0.012326694 -0.080548875 0.04781525 -0.08249811
-0.025711529 -0.021795446 -0.006166184 0.058698304 0.0036522213 0.0014652716 -0.008887422 0.032166965
-0.047088888 -0.036776308 -0.028251186 0.06548433 -0.06891988 -0.008694569 0.031787157 0.031154532
-0.02392617 0.010623453 0.052048836 0.04547588 -0.05256844 -0.040378887 -0.046245463 -0.010119589
0.014234905 0.027883967 0.037040174 0.03856838 0.045149524 0.014421135 -0.023701178 -0.07720917
00000000: bc4d 8a3d fda1 533c 00b1 a73c 9de8 0c3d
00000010: ee42 d13c caec f43c 882e cc3b 4670 84bd
00000020: daf3 053c 27a7 08bd 54eb 813c e841 c1bc
00000030: 4ba3 853c a2d2 63bd 188b 9abb 0bf1 7d3b
00000040: 9129 43bd c129 f73c 1877 20bc a733 47bc
00000050: e778 8cbb c51a cdbb 35ac bdbc f2c9 4dba
00000060: 02c4 90bc db16 72bd 0e6b 7abb 7f1e 823c
00000070: 138d 4b3c 0b94 c2bb 139a 0fbd b63b 1f3d
00000080: e3d9 48bc 1de2 d13c a793 18bd 9516 9c3c
00000090: f29c 59bd f14e 3a3b effa f4bc 8565 873d
000000a0: 776f 02bd f11f 4c3c 078f 553d 9cc1 ac3c
000000b0: ad12 b93c 2308 42bb 0d81 43bd 8551 4f3d
000000c0: cd96 083c 8783 19bd b3ad 983d 6b7a 16bd
000000d0: 0d44 e1bc 7fb8 873d 3952 57bd e961 153d
000000e0: 256d 95bc b663 743d 6cfd 593d 9cf2 b1bb
000000f0: 2a50 2a3d 5ef2 703d 0b15 81bd cb81 f83b
00000100: d159 70bd c6d7 10bc 5725 46bd c2c7 e93c
00000110: cf4d ac3d 9afd ab3d e802 74bb 7143 903b
00000120: f82e 033c 9259 13bd 5a81 0a3d 8efb bdbc
00000130: 350f 333d ab66 693d abb2 e03c 720f 073c
00000140: 8f9a fd3c 34fe c0bd 1457 9abb 70c7 46bd
00000150: f57e 3a3c 45d3 b4bc 0b37 68bd c09b d9bc
00000160: 3ed5 50bb 09cd 6cbd 0f8c d63c 8cf5 93bd
00000170: 6704 8c3c fc08 58bd c54f 66bd cd36 693c
00000180: 59b9 43bc 0505 db3b ecf9 813c c635 4fbd
00000190: 8e29 3dbd 3e51 fbbc 9d8e 0bbd a711 1c3d
000001a0: 9472 2d3d 1f4f 4dbb cbd2 90bd ea96 c83c
000001b0: 9496 5b3c 3aa8 2e3d bea0 bb3a 3110 bf3d
000001c0: c6dc 00bd 42d0 8abd c64d 853c 8153 a23d
000001d0: e998 86bd 3b7d 5b3c 77e6 36bd 01ef 29bd
000001e0: dfaf 1d3d 2371 10bd ea80 cdbc 36d5 8cbd
000001f0: f9d8 50bc 0f67 40bd c173 b6bd 55ff 013d
00000200: 4449 5b3d df02 c5bc 3b10 943d df00 2f3d
00000210: ca43 a7bb 5a08 833d 7f7f e3ba fe29 35bd
00000220: 969d 38bc 0172 8d3c 8ce8 5bbc 331c 47bd
00000230: 552a bd3b 4962 cebc ecbd 78bd affa 1bbd
00000240: f895 353d 2ae2 753d d4da 04bc e887 f23b
00000250: 6260 09bd e758 cf3c 902f ad3d 98ce dd3c
00000260: 5eeb 8dbd e080 643d b2ea 8dbd b9bd cabb
00000270: c2b6 19bc 1496 083d 8853 a83c 2abb 4d3d
00000280: 3dfb 91bd ad94 55bd 7375 493c e602 373a
00000290: 5dc6 d43c 41b1 353d 6f79 04bd 7832 303d
000002a0: 6d14 e4bb 454e 63bd 3d4e a13d 8c13 36bd
000002b0: 7674 213c 9791 84bd ccca 88bd bc94 98bd
000002c0: 3577 4c3d 6c0c ef3c 7c59 0dbc 3493 3e3d
000002d0: 04d3 64bc a306 2ebd b5af 653d a43d 633d
000002e0: b738 933d 3c8c 843c baf8 51bd 1d3c 5a3d
000002f0: 07e5 4cbd c0d4 293d 2f0e 48bd 7ab1 1bbd
00000300: 1ea4 94bb 5ea9 1d3d 0c19 aa3c 1485 fabb
00000310: 191e d0bc ac68 29bd 065f 773c 3260 f93c
00000320: 55e6 d8bc 2589 00bc d13f 30bd b5c5 7dbd
00000330: 4181 063d eedd 62bd 935e 6f3d 0440 173d
00000340: 25d4 303d 1a29 d1bc fe6c 8abd b110 833d
00000350: b627 18bd 4ad7 e6bc f1cc b13a bc7c 073d
00000360: e673 793d 9562 853d 1fd2 2d3d bb96 b6bc
00000370: e7f5 493c cff6 a4bd ecd9 433d c5f4 a8bd
00000380: fca0 d2bc 5d8c b2bc b30d cabb a26d 703d
00000390: 1b5a 6f3b 5b0e c03a 8d9c 11bc 82c1 033d
000003a0: 47e0 40bd c1a2 16bd 086f e7bc a61c 863d
000003b0: de25 8dbd aa73 0ebc 4033 023d ca37 ff3c
000003c0: d100 c4bc fe0d 2e3c 2931 553d eb44 3a3d
000003d0: 0152 57bd 5564 25bd e26b 3dbd a2cc 25bc
000003e0: 8539 693c eb6c e43c 70b7 173d e1f9 1d3d
000003f0: b5ee 383d a046 6c3c f928 c2bc d71f 9ebd

transformer.layers.0.0.to_out.0.bias f4 [4]
-0.06563279 -0.025251321 -0.03122062 -0.0134528335
00000000: 7c6a 86bd dcdb cebc 63c2 ffbc 4669 5cbc

transformer.layers.0.1.net.0.weight f4 [4]
1.0169437 1.0380964 0.9749813 1.0095791
00000000: 362b 823f 58e0 843f 6098 793f e339 813f

transformer.layers.0.1.net.0.bias f4 [4]
-0.022514528 -0.012702799 0.018266339 0.02191286
00000000: 6370 b8bc 671f 50bc 4aa3 953c 9982 b33c

transformer.layers.0.1.net.1.weight f4 [128, 4]
0.49401703 -0.43735182 -0.26320168 0.3113957 0.40922537 0.28201687 -0.10059316 0.09986416
0.31539953 0.2696332 0.2262062 0.18053761 -0.21245338 -0.1702714 0.1881741 -0.39958996
0.40609688 -0.13331519 0.2182585 -0.07116159 0.47426316 -0.42242977 0.23687308 0.03532704
-0.3331105 -0.39279938 -0.08682126 -0.26425445 -0.44739586 0.04084423 -0.24535811 -0.45928904
0.46436763 -0.48414767 -0.3881599 -0.010309798 0.46088582 -0.14529343 -0.32618436 -0.3327558
0.2983113 -0.14033252 -0.4711472 0.00086636824 0.19414689 0.11420508 0.26849154 0.053505346
0.2739402 0.4570088 0.19571987 0.059860338 -0.415613 -0.05812505 -0.25465795 0.29745933
0.008780849 -0.16715397 -0.29908758 0.4190828 -0.45670995 0.13934992 0.3529706 -0.053460255
-0.16007155 -0.39997062 0.44488865 0.3456956 -0.26708043 -0.367214 0.1974091 0.32782102
0.09020158 -0.362712 0.008395831 -0.06869621 0.46694997 0.018631835 0.29937977 -0.15080053
-0.24014826 -0.08870176 0.009372331 -0.015419318 0.25169182 0.37115118 -0.38036257 0.03178299
-0.3974745 0.2014928 0.09671722 0.38587865 -0.4093604 -0.40231195 0.1485033 -0.085525125
-0.035940807 0.23706321 0.054627143 -0.4478792 -0.36931702 0.09462916 0.033391844 0.26831168
-0.13385895 0.09902515 0.2606129 -0.02618607 0.0651274 0.055875424 0.50521976 0.49704307
-0.23331468 0.3043127 0.08293164 -0.45671257 -0.3365147 -0.48060003 -0.0810069 0.40247628
0.15616523 0.0826793 -0.25854993 0.38744673 -0.3027015 -0.38789892 -0.24855836 0.17283784
-0.43995285 0.5418936 0.40871677 0.2910217 -0.081762716 -0.100427404 0.054863475 0.0335128
0.24378194 -0.39925373 0.3953858 0.11130491 -0.105871886 0.02374521 -0.011520161 0.33385986
-0.29246178 0.17402187 -0.34105596 0.19879429 -0.32993627 0.34221938 0.38420394 -0.058312353
-0.39066985 -0.40931597 -0.48717555 0.10645765 -0.24804747 0.35518804 0.38978338 0.15366273
0.17262325 -0.17042498 0.3576554 -0.18400775 -0.5037589 -0.21602751 -0.4209722 -0.25411513
0.24899383 -0.03992672 0.49040097 0.40480083 -0.23531367 0.19553687 0.22215097 0.0814051
-0.5385317 -0.20486532 0.1870531 0.14511962 0.36549228 0.25373638 0.039069116 -0.30343425
-0.52909017 -0.15567195 -0.11824976 -0.2949657 -0.33783382 0.07112521 -0.014415192 0.15741237
0.39290217 -0.41533315 -0.1699087 -0.37024495 0.13173279 -0.12125063 0.13448875 -0.45077738
-0.29603958 0.44911584 0.5236477 -0.21937491 -0.048140366 -0.36375573 -0.07233506 -0.4470037
-0.32328838 0.36392662 0.33095652 0.41478494 0.37456298 -0.2551508 0.4740157 0.04383244
-0.30954698 0.18648285 -0.15203376 0.40298977 0.43889797 0.2748128 0.2510189 0.11382348
0.30069622 0.16424853 0.023465607 0.21518864 -0.17002842 -0.024126174 -0.25833765 -0.16238397
0.017370524 0.28734633 -0.35607752 0.46233463 -0.4603782 0.007817985 -0.23621514 -0.50321305
0.39458832 0.3350397 -0.09173191 0.17664938 0.14359057 0.47475713 0.14122811 -0.0013795075
0.20802788 0.14720093 -0.2488361 -0.4509225 0.18777154 -0.32053828 0.5055039 -0.37223703
00000000: cdef fc3e 94ec dfbe 5fc2 86be 426f 9f3e
00000010: fd85 d13e 8464 903e c903 cebd 9585 cc3d
00000020: 0c7c a13e 5d0d 8a3e 99a2 673e dade 383e
00000030: 618d 59be a05b 2ebe b6b0 403e 0e97 ccbe
00000040: eeeb cf3e c783 08be 287f 5f3e 2bbd 91bd
00000050: 9fd2 f23e b748 d8be db8e 723e 16b3 103d
00000060: 768d aabe 001d c9be 58cf b1bd 5c4c 87be
00000070: 1211 e5be 484c 273d 283f 7bbe ef27 ebbe
00000080: 98c1 ed3e 34e2 f7be e5bc c6be 6dea 28bc
00000090: 3af9 eb3e cdc7 14be a301 a7be f85e aabe
000000a0: 42bc 983e 54b3 0fbe 353a f1be fd1c 633a
000000b0: 71ce 463e 5ae4 e93d b977 893e 6c28 5b3d
000000c0: e441 8c3e 0ffd e93e ca6a 483e 1d30 753d
000000d0: 3acb d4be 8814 6ebd 8762 82be 974c 983e
000000e0: 8ddd 0f3c 692a 2bbe 0222 99be 0592 d63e
000000f0: e3d5 e9be bfb1 0e3e 90b8 b43e 24f9 5abd
00000100: cce9 23be f3c8 ccbe 72c8 e33e 04ff b03e
00000110: c4be 88be 7903 bcbe 9c25 4a3e 28d8 a73e
00000120: 9bbb b83d 63b5 b9be ab8e 093c 99b0 8cbd
00000130: 1114 ef3e caa1 983c 4e48 993e 746b 1abe
00000140: 6de9 75be 45a9 b5bd 688e 193c 4fa1 7cbc
00000150: c0dd 803e 8707 be3e e2be c2be e12e 023d
00000160: c781 cbbe 2154 4e3e ae13 c63d e391 c53e
00000170: b097 d1be d5fb cdbe 4011 183e cc27 afbd
00000180: ab36 13bd b3c0 723e b6c0 5f3d 6c50 e5be
00000190: 1f17 bdbe efcc c13d e3c5 083d 2660 893e
000001a0: 5212 09be b3cd ca3d 0e6f 853e 2b84 d6bc
000001b0: 8461 853d a1dd 643d 1556 013f 6e7c fe3e
000001c0: 0bea 6ebe e0ce 9b3e 10d8 a93d 3bd6 e9be
000001d0: a84b acbe 3511 f6be f2e6 a5bd 5f11 ce3e
000001e0: c7e9 1f3e c453 a93d a860 84be 6b5f c63e
000001f0: b1fb 9abe b09a c6be 1586 7ebe 67fc 303e
00000200: 8041 e1be 8ab9 0a3f 5343 d13e cc00 953e
00000210: 3673 a7bd e2ac cdbd 86b8 603d b844 093d
00000220: f9a1 793e fc6a ccbe 0270 ca3e d4f3 e33d
00000230: 5cd3 d8bd 5185 c23c 0fbf 3cbc aeef aa3e
00000240: 8dbd 95be ca32 323e e39e aebe bb90 4b3e
00000250: 68ed a8be 6137 af3e 61b6 c43e efd8 6ebd
00000260: e105 c8be dd91 d1be 136f f9be 7806 da3d
00000270: 2800 7ebe 35db b53e b091 c73e c359 1d3e
00000280: 26c4 303e e383 2ebe 9c1e b73e 876c 3cbe
00000290: 58f6 00bf 5136 5dbe ab89 d7be 611b 82be
000002a0: 3df8 7e3e 338a 23bd d615 fb3e 0e42 cf3e
000002b0: 11f6 70be d13a 483e 8b7b 633e b8b7 a63d
000002c0: 37dd 09bf 37c8 51be d98a 3f3e 3d9a 143e
000002d0: ce21 bb3e bce9 813e f006 203d bc5b 9bbe
000002e0: 7472 07bf 7868 1fbe ee2c f2bd bf05 97be
000002f0: 8ef8 acbe 18aa 913d b32d 6cbc b530 213e
00000300: 792a c93e 8ca6 d4be 8cfc 2dbe bf90 bdbe
00000310: f6e4 063e 4052 f8bd 6bb7 093e 4bcc e6be
00000320: 8092 97be 83f2 e53e c70d 063f d1a3 60be
00000330: d52e 45bd 313e babe 6724 94bd abdd e4be
00000340: 0e86 a5be 9754 ba3e 2273 a93e b15e d43e
00000350: b8c6 bf3e 20a3 82be 30b2 f23e a589 333d
00000360: f17c 9ebe 5cf5 3e3e bdae 1bbe ad54 ce3e
00000370: 3cb7 e03e 43b4 8c3e 8d85 803e 491c e93d
00000380: dbf4 993e c430 283e f23a c03c 695a 5c3e
00000390: ee1b 2ebe 41a4 c5bc d544 84be fc47 26be
000003a0: a14c 8e3c 0f1f 933e cb4f b6be 20b7 ec3e
000003b0: b1b6 ebbe 0117 003c 62e2 71be 92d2 00bf
000003c0: 7b07 ca3e 538a ab3e f1dd bbbd 93e3 343e
000003d0: 6809 133e 5e13 f33e 1a9e 103e 97d0 b4ba
000003e0: 4305 553e d7bb 163e e4ce 7ebe 50df e6be
000003f0: 2f47 403e 981d a4be b468 013f da95 bebe

transformer.layers.0.1.net.1.bias f4 [128]
0.12579401 0.23219237 0.39950496 -0.1638813 -0.48753342 0.01044134 0.28955135 -0.028450884
-0.072361626 -0.010528355 0.37288317 0.19289668 0.24505544 0.4195794 -0.4469162 -0.14787175
0.053164564 -0.18831287 -0.44782633 0.1563054 -0.23793453 -0.043711416 -0.35562578 -0.09429332
0.23107225 -0.32072592 -0.17446367 -0.1358723 -0.25238958 0.03853757 0.007560682 -0.4361522
-0.08056973 0.037370577 0.47906315 -0.21410595 0.11708371 -0.23986208 -0.38841835 0.29184812
0.3429474 0.37983963 0.016286569 -0.21949065 0.28828722 -0.35031706 0.059687134 -0.32018015
0.15682462 0.2543189 -0.22923969 0.18874961 -0.067742884 -0.16174912 -0.29592997 0.40923622
-0.44027898 0.4322806 0.470471 0.39888033 -0.05394021 0.20711279 0.26664725 -0.16454911
-0.17327534 -0.34511787 0.0021770468 0.19768946 -0.15990923 -0.2648162 -0.19626315 -0.28430748
-0.4885681 0.34897968 0.14858024 0.26788834 -0.47960722 -0.29108906 -0.4032501 -0.047371823
-0.12904306 0.43119437 0.39892763 -0.3894533 -0.50392944 0.43441838 0.3870104 0.48449814
-0.29969132 0.117438674 0.42599127 0.4158778 -0.04235262 0.0441385 -0.3582784 0.40344182
-0.4610613 -0.1146082 -0.22809862 0.19676797 -0.29383186 -0.1769804 -0.11477816 -0.30911532
-0.38092 0.5090538 -0.41479823 0.25046244 -0.3350608 0.079093896 -0.32729912 -0.05324673
-0.31079078 -0.5001564 0.43698925 0.08875145 -0.46521437 -0.2375049 0.19061865 -0.45212492
-0.38811344 -0.28626412 0.45427307 0.107516974 0.04382809 0.23694506 0.012189806 -0.34902534
00000000: 25d0 003e d6c3 6d3e ea8b cc3e 80d0 27be
00000010: fb9d f9be 2712 2b3c 1340 943e d411 e9bc
00000020: 5532 94bd 1f7f 2cbc 8bea be3e b586 453e
00000030: d0ef 7a3e 1cd3 d63e 33d2 e4be b16b 17be
00000040: 16c3 593d 17d5 40be 7e49 e5be 860e 203e
00000050: 1ca5 73be be0a 33bd 9514 b6be db1c c1bd
00000060: 349e 6c3e 3036 a4be 9ba6 32be 1c22 0bbe
00000070: 3539 81be 92d9 1d3d 99bf f73b 574f dfbe
00000080: be01 a5bd e411 193d c447 f53e 973e 5bbe
00000090: 96c9 ef3d 689e 75be c5de c6be 1e6d 953e
000000a0: cd96 af3e 577a c23e 696b 853c 28c2 60be
000000b0: 629a 933e c25c b3be 7f7a 743d a7ee a3be
000000c0: a296 203e 1636 823e cfbd 6abe 9447 413e
000000d0: c8bc 8abd 90a1 25be 2284 97be 6987 d13e
000000e0: 3f6c e1be e253 dd3e 93e1 f03e 0b3a cc3e
000000f0: 69f0 5cbd 6015 543e fd85 883e 907f 28be
00000100: 176f 31be 4ab3 b0be c9ac 0e3b 1b6f 4a3e
00000110: 3fbf 23be fd95 87be 35f9 48be c090 91be
00000120: 9925 fabe 77ad b23e 6b25 183e a928 893e
00000130: 148f f5be a009 95be cc76 cebe f508 42bd
00000140: dd23 04be 82c5 dc3e 3e40 cc3e 6c66 c7be
00000150: 8501 01bf 166c de3e 3a26 c63e 2410 f83e
00000160: 2471 99be b083 f03d 871b da3e efed d43e
00000170: f179 2dbd 92ca 343d 4470 b7be ed8f ce3e
00000180: 3a10 ecbe b4b7 eabd af92 69be 8b7d 493e
00000190: 2171 96be 5a3a 35be d010 ebbd 5d44 9ebe
000001a0: f207 c3be 5a51 023f 6f60 d4be 9d3c 803e
000001b0: 178d abbe fbfb a13d c093 a7be 3e19 5abd
000001c0: f81f 9fbe 400a 00bf 0ebd df3e 52c3 b53d
000001d0: 9430 eebe 7c34 73be 8931 433e eb7c e7be
000001e0: ceb6 c6be 3691 92be 7b96 e83e dc31 dc3d
000001f0: 1585 333d baa1 723e c1b7 473c 73b3 b2be

transformer.layers.0.1.net.4.weight f4 [4, 128]
-0.021257043 -0.050777715 -0.0062873685 -0.06095818 0.06395146 0.07206432 0.00021598206 0.07989218
0.045195952 -0.00022548466 -0.0061286516 -0.046405323 0.032580286 0.0046517253 0.017472567 -0.06967786
0.0030054578 -0.12486807 -0.027064702 0.013516177 -0.067106746 -0.040325876 0.011519946 0.013419279
-0.044148423 0.018057933 0.07921833 -0.0060872524 0.05485561 -0.07508989 -0.04335544 0.064939454
0.056561306 0.019902283 0.031834688 -0.054620188 0.016975347 0.009275708 -0.08631824 -0.02301527
0.093191884 -0.023032352 0.03872242 -0.01860846 -0.08020513 -0.003954271 -0.058180846 -0.04993652
-0.06294365 -0.014426508 0.09141674 -0.0076039834 0.053930197 0.107342586 -0.0033801277 -0.09077374
0.071063325 -0.01985784 -0.06587515 0.013055621 -0.088585235 -0.0034907195 -0.025939595 0.02294178
0.040337417 0.011603522 -0.061221015 -0.014593484 0.09626498 -0.01903869 -0.06835322 -0.03456598
-0.03884887 -0.078585066 0.04297743 0.07722981 -0.023643333 0.03938624 -0.12661655 0.07050715
-0.05378576 -0.0022591029 -0.014307055 -0.038398262 0.08535342 -0.026623178 0.008306407 -0.091146566
0.027506307 -0.09391768 0.051969826 0.09050344 0.015749747 0.07766423 0.0713773 -0.030615225
0.027997347 0.01726035 -0.030329699 0.05409239 0.036467377 0.0815411 -0.021979306 -0.016591176
-0.02100756 -0.03638583 -0.009711286 -0.023229092 0.05978683 0.07156335 0.009504051 -0.06518947
-0.062427677 0.04818731 -0.0014748707 -0.07751142 -0.06403865 0.07195327 0.06379662 -0.08688845
0.024068387 0.10669575 -0.013823622 -0.09369241 -0.038984008 0.0047561275 0.06204419 -0.033397786
-0.058430377 -0.06565123 -0.057843026 0.043243494 -0.009561898 -0.007957452 -0.044695172 0.07155508
0.04807012 -0.067788936 -0.012762171 -0.009329043 0.00028046675 0.011332385 0.027996136 -0.035222363
-0.08698136 -0.048924476 -0.029450782 0.062245086 -0.00044999027 0.043584444 -0.11023402 -0.0012371797
0.046438213 0.023638139 -0.026022008 0.05566027 0.058440346 -0.034584463 -0.10760466 0.08426129
-0.026779825 0.00039759846 -0.08406698 -0.055313397 -0.08520347 -0.030037334 -0.07621464 -0.025769105
-0.096319884 -0.08539603 0.015034807 0.019041965 -0.045335412 0.07566113 -0.0043611825 -0.05706515
-0.01557953 -0.04009367 -0.023565095 0.004454661 0.011530528 -0.06560645 -0.12703149 -0.028622542
0.08725893 -0.034122974 -0.02909115 0.08989513 -0.058508463 0.0970731 -0.047237378 -0.017915385
-0.0015366582 0.042165436 -0.02868437 0.0057011116 -0.120797336 0.08183372 0.12707339 0.0035694672
0.08633688 -0.010621704 0.030596938 -0.0062478953 0.06151504 -0.10437939 0.09489087 0.042166825
0.07404713 -0.08546969 -0.0023149215 -0.026950838 -0.000543461 -0.016225405 -0.02764273 -0.08439657
-0.011638438 -0.07969987 0.040420935 0.03506865 -0.0049084825 0.020382054 -0.024973892 0.060259715
-0.12985538 -0.06624478 -0.09412887 -0.049796354 0.019229403 -0.05124094 -0.09015967 0.06322979
0.1472107 -0.042697925 -0.046739493 0.00040858606 -0.016136998 -0.10595605 0.018216835 -0.013531777
0.10455281 -0.04254282 -0.097186394 -0.073461264 -0.04935754 0.0523698 -0.058945794 0.055184215
-0.05602872 -0.08969987 0.021018602 -0.080245525 0.00081930286 -0.049594626 -0.035103906 -0.08123564
00000000: 4023 aebc 4bfc 4fbd 4506 cebb 49af 79bd
00000010: fcf8 823d 7596 933d 3e79 6239 839e a33d
00000020: 641f 393d 1470 6cb9 dbd2 c8bb 8213 3ebd
00000030: e872 053d 806d 983b a122 8f3c 44b3 8ebd
00000040: 37f7 443b d5ba ffbd cbb6 ddbc f572 5d3c
00000050: 436f 89bd bf2c 25bd 28be 3c3c 89dc 5b3c
00000060: fad4 34bd 3bee 933c 383d a23d 9377 c7bb
00000070: 47b0 603d bac8 99bd 7995 31bd fafe 843d
00000080: d4ac 673d 1d0a a33c 1765 023d 6bb9 5fbd
00000090: e20f 8b3c 24f9 173c 9ec7 b0bd 858a bcbc
000000a0: 63db be3d 58ae bcbc 669b 1e3d c570 98bc
000000b0: 9642 a4bd d492 81bb 0a4f 6ebd 3d8a 4cbd
000000c0: 9ae8 80bd 295d 6cbc b338 bb3d d62a f9bb
000000d0: e9e5 5c3d 6ed6 db3d 2285 5dbb 95e7 b9bd
000000e0: a689 913d e9ac a2bc 8de9 86bd 3ee7 553c
000000f0: 2d6c b5bd 8ec4 64bb 467f d4bc 66f0 bb3c
00000100: d938 253d b31c 3e3c e3c2 7abd 8219 6fbc
00000110: 9326 c53d 07f7 9bbc c6fc 8bbd 0f95 0dbd
00000120: fe1f 1fbd 35f1 a0bd 1a09 303d aa2a 9e3d
00000130: aaaf c1bc 7753 213d c5a7 01be 0d66 903d
00000140: 754e 5cbd 750d 14bb 2368 6abc 7f47 1dbd
00000150: c6cd ae3d da18 dabc 9917 083c 0dab babd
00000160: e854 e13c ea57 c0bd 50de 543d de59 b93d
00000170: 9d05 813c 6c0e 9f3d 432e 923d c8cc fabc
00000180: b15a e53c 9465 8d3c fd75 f8bc fb8f 5d3d
00000190: d15e 153d 05ff a63d f20d b4bc 38ea 87bc
000001a0: 0c18 acbc 4f09 15bd 161c 1fbc f04a bebc
000001b0: 09e3 743d ce8f 923d e1b6 1b3c 0f82 85bd
000001c0: 2ab4 7fbd 0f60 453d 7350 c1ba 4fbe 9ebd
000001d0: b226 83bd 3c5c 933d cda7 823d 92f2 b1bd
000001e0: 112b c53c 4d83 da3d 797c 62bc cee1 bfbd
000001f0: b2ad 1fbd 4ad9 9b3b 0c22 7e3d 1ecc 08bd
00000200: b154 6fbd 2774 86bd cfec 6cbd 1720 313d
00000210: 82a9 1cbc f95f 02bc 4912 37bd 788b 923d
00000220: 2de5 443d edd4 8abd 6d18 51bc d8d8 18bc
00000230: 9c0b 9339 78ab 393c 2758 e53c 5345 10bd
00000240: 4923 b2bd 0865 48bd c442 f1bc b4f4 7e3d
00000250: acec ebb9 9a85 323d 60c2 e1bd dd28 a2ba
00000260: ff35 3e3d c5a4 c13c 1b2c d5bc 06fc 633d
00000270: 255f 6f3d 70a8 0dbd d55f dcbd 2f91 ac3d
00000280: 5d61 dbbc c374 d039 4f2b acbd 4d90 62bd
00000290: 287f aebd db10 f6bc 6c16 9cbd bb19 d3bc
000002a0: 5c43 c5bd 1de4 aebd 8d54 763c e5fd 9b3c
000002b0: a0b1 39bd 39f4 9a3d 40e8 8ebb 26bd 69bd
000002c0: 4941 7fbc 4339 24bd 960b c1bc 68f8 913b
000002d0: 8aea 3c3c ad5c 86bd 8b14 02be d279 eabc
000002e0: cfb4 b23d 88c4 0bbd 9050 eebc f01a b83d
000002f0: 92a6 6fbd 43ce c63d fb7b 41bd 49c3 92bc
00000300: b169 c9ba aab5 2c3d 7cfb eabc 64d0 ba3b
00000310: 9864 f7bd 7098 a73d 871f 023e b9ed 693b
00000320: 64d1 b03d a806 2ebc 6ea6 fa3c 25bb ccbb
00000330: 32f7 7b3d ddc4 d5bd 2556 c23d 1fb7 2c3d
00000340: 06a6 973d bc0a afbd f0b5 17bb 01c8 dcbc
00000350: 0d77 0eba 24eb 84bc 0273 e2bc 1cd8 acbd
00000360: 26af 3ebc af39 a3bd 6c90 253d 25a4 0f3d
00000370: 56d7 a0bb 44f8 a63c 0c96 ccbc e4d2 763d
00000380: cff8 04be 58ab 87bd a3c6 c0bd 43f7 4bbd
00000390: fb86 9d3c 05e2 51bd a2a5 b8bd 9f7e 813d
000003a0: 67be 163e 05e4 2ebd e971 3fbd 7e37 d639
000003b0: bd31 84bc 7cff d8bd 793b 953c 63b4 5dbc
000003c0: c91f d63d 6141 2ebd a909 c7bd dc72 96bd
000003d0: 222b 4abd b781 563d 2571 71bd d808 623d
000003e0: 5f7e 65bd 91b4 b7bd 342f ac3c c457 a4bd
000003f0: 7cc6 563a bc23 4bbd 1dc9 0fbd df5e a6bd

transformer.layers.0.1.net.4.bias f4 [4]
-0.040309165 -0.097783335 0.07495026 0.039980024
00000000: 391b 25bd a142 c8bd 867f 993d 18c2 233d

transformer.layers.1.0.norm.weight f4 [4]
0.992483 1.0429021 0.9862319 1.0336193
00000000: 5e13 7e3f d17d 853f b279 7c3f a34d 843f

transformer.layers.1.0.norm.bias f4 [4]
-0.0024558392 -0.004014158 -0.031416096 0.0034963381
00000000: 25f2 20bb 3389 83bb 2aae 00bd d222 653b
