models/cct/model/model.pth (torch, 632901 bytes, 52 tensors)

tokenizer.conv_layers.0.0.weight f4 [64, 3, 7, 7]
00000000: f9c7 a3bd f8cf b33d fe58 1b3e 44b0 8e3c
00000010: b5cf 11bc c5d0 8b3d b0bf a8bd 8b33 93bc
00000020: 7c07 10bd a707 8c3c 30ee 90be d76b 4abd
00000030: b31a 8f3e c874 ddbc f408 873d bc46 08bd
00000040: a550 55bd 7c1a 56be 6f29 81bd f2c9 b3bc
00000050: 027e 94be 619a 863d 3833 cdbd 0eda cd3d
00000060: f070 8bbd 041d ed3d a246 32bc b07e fabd
00000070: af19 fbbc 4dc5 903d a7fe 2cbd 5fa8 0cbe
00000080: 368b 1b39 fce9 fb3d 46c9 2a3e da94 eabd
00000090: 8501 98be 779d 15bd b874 bdbd 7976 90be
000000a0: fecb 51bd a673 4b3d 27f5 833d 8122 55ba
000000b0: c106 4d3d cfd9 c93c 37c8 afbd 1d57 413d
000000c0: bf86 6c3d 368a c93d 09bf 073e 4176 a03c
000000d0: d9a8 e6bc 995b 88bb 5a13 823d 0b60 55be
000000e0: 8e55 353e 2dfa 003d 706d a9be b4a7 59bd
000000f0: ab9b 65be ab80 a2bb 7d1b 9f3d c5e8 3fbe
00000100: d54e 003e f043 2a3e 2c1c 32be 1bae 5e3d
00000110: 5451 94bd 398a 6ebe 4f80 2d3e 917a 613b
00000120: 26bd 80be 4594 ddbd a8a3 aa3c eb1f 04bd
00000130: 039f 823e 7d76 303d ba41 28be 63c4 1bbd
00000140: 199b 343d e636 ba3c 391f 85bd a294 e9bd
00000150: d845 133d 78c7 9ebd 7cda f7bd eef8 283e
00000160: aa29 bb3d c54a 85bd 5018 4d3d f8de 163e
00000170: 4cc9 11bd 0757 a33d 80e5 6bbe 405f edbd
00000180: 5de1 483d 3459 943d 4472 43bc 105d 9a3d
00000190: 2b9d a7bd a00a 90bd d0a7 fabd f42f d7bc
000001a0: 7b11 6cbc 5a08 26be 8e92 1c3c f09d 7e3e
000001b0: 7270 6abe 3730 74bd a027 47be 5495 1bbd
000001c0: e933 0d3e 2f03 3bbc fe74 d33b 5baf 6b3d
000001d0: 385f 28be 24e5 f8bc 2d72 ca3b 6408 d73d
000001e0: c1ce dd3d c583 63be ce9f 173e a956 d93d
000001f0: a00d ef3d 624a 463e 39cc 80bd 29fb 88bd
00000200: f03b 903e 48a8 32be 8be9 83bd f68b 043e
00000210: ad2d 5d3b 30ae 3cbe 0a48 11be 114c 1dbe
00000220: 3b3e 11be 0230 69be 3465 72bd 75da be3d
00000230: 5058 803e b09b e3bd 1c78 05ba 5046 95bd
00000240: 565a 67be e20a 773d 19b0 153e 0d68 263e
00000250: 07cc e73d d6ef 47be a0f6 9c3d 3164 5fbd
00000260: cea8 3f37 15b8 e0bd 15b3 453d 6fa7 cf3d
00000270: 9243 a63d 4778 7b3e 5019 42bc eb83 d6bc
00000280: 88ef 91be 5d7b 8dbd 0cab 513d 816b 55be
00000290: 1620 84bd 98b0 b5bd 8284 90bd 7faa abbd
000002a0: 9a10 bfbd 999c 893d c2a9 053e a1c9 09be
000002b0: 0a51 d43d e6e6 4cbd a115 f7bd 4e1c d4bc
000002c0: 3437 4abc 30de 1fbd 9edf 55be 1a84 89bc
000002d0: 6024 053e 9901 95bd 6479 f7bd 1f2e c8bd
000002e0: 8528 13bc d10b 73bd f459 30be 2ebc 2fbd
000002f0: 2a1c 663e b324 75bd fb59 683c c753 6abe
00000300: b15b 48be 51be 9dbc d9ea 613d 1073 c23d
00000310: 430f 663d e756 c9bd 168a 39be 4a0a 943e
00000320: 3d82 143d a61c 973c 0ce3 143c 2d09 4f3d
00000330: 6652 a4bc 859d afbd 0bcd fa3d 83a3 e23d
00000340: 247b 4f3e 102f 823d 78a1 8dbc 761c 53be
00000350: 1799 8ebd 6e65 203d bfc4 dc3d 72b0 3fbe
00000360: 3d89 69bc 9ae1 3fbe 2fcc 22bd ed24 663c
00000370: 9695 363d 02fd 1ebe e3a8 2f3e e5c5 1a3b
00000380: 3db4 243c a45f 063e 2269 2bbe f5bc d23c
00000390: 3a5a 8a3c b4e3 04be 15ab 163e f7fc cdbd
000003a0: 015d 80bc 69d8 18bd c4f8 a23d 21a0 02be
000003b0: cd1c 3e3e 926c ecbd 1f96 b53c 005b 9e3b
000003c0: b2cb b9bc 8eb2 e53d c0da d93d a444 403e
000003d0: fce4 62bd 1648 663d f22c 9b3c f44f ba3d
000003e0: 5d6f 12be c109 1e3e ac4d cbbc 4c67 2a3e
000003f0: ec29 9bbd 87b0 863e 63a9 a5bd 59f2 953d
-0.07997126 0.08779901 0.15170667 0.017418034 -0.008899619 0.06826929 -0.082396865 -0.017968914
-0.035163388 0.017093493 -0.28306723 -0.04941925 0.27950057 -0.027033225 0.065935045 -0.033270583
-0.05207886 -0.2090854 -0.06306731 -0.021946881 -0.29002386 0.06572414 -0.10019535 0.10051356
-0.068086505 0.115778 -0.010881098 -0.12231195 -0.030651895 0.07068882 -0.042235043 -0.13736103
0.00014833812 0.12300488 0.16678342 -0.114541724 -0.2968866 -0.036527123 -0.09250778 -0.28215387
-0.051219933 0.049670838 0.064432435 -0.00081304467 0.05005527 0.024639992 -0.0858311 0.04720222
0.05774569 0.09840815 0.13256468 0.019587638 -0.028156685 -0.00416131 0.06351347 -0.20837419
0.17708418 0.031488586 -0.33091307 -0.05313845 -0.22422664 -0.004959186 0.07768915 -0.18741138
0.12530072 0.16627479 -0.17393559 0.05436526 -0.072420746 -0.23294915 0.16943477 0.003440533
-0.2514431 -0.10819296 0.02082999 -0.032257 0.2551194 0.04308175 -0.16431323 -0.038029086
0.044093225 0.022731256 -0.06500096 -0.114053026 0.03595528 -0.077528894 -0.121022195 0.16501209
0.09138806 -0.06508402 0.050072014 0.14733493 -0.035592362 0.079755835 -0.23036766 -0.11590433
0.04904305 0.07243577 -0.0119290985 0.075372815 -0.08184274 -0.070332766 -0.12239039 -0.026267983
-0.014408465 -0.16214123 0.009556426 0.24864936 -0.22894457 -0.059616294 -0.1944871 -0.037984207
0.13789333 -0.011414333 0.0064531555 0.05754028 -0.16442573 -0.0303827 0.0061781616 0.10499647
0.10830451 -0.22218235 0.14807054 0.10612232 0.11672521 0.19364312 -0.062889524 -0.0668853
0.2817073 -0.17447007 -0.06441029 0.12944016 0.0033749149 -0.18425822 -0.14187637 -0.15361048
-0.14183895 -0.2277222 -0.059178546 0.09319011 0.25067377 -0.111136794 -0.0005091445 -0.07288802
-0.22593054 0.060313113 0.14617957 0.1625063 0.11318212 -0.19525084 0.076642275 -0.05453891
1.142379e-05 -0.10972611 0.04826649 0.10139357 0.08118357 0.24557601 -0.011846855 -0.02618595
-0.2850306 -0.06908295 0.051188514 -0.2084179 -0.064514324 -0.08871573 -0.07056524 -0.08382129
-0.09329338 0.06719322 0.13053039 -0.13455822 0.103670195 -0.05002489 -0.12064672 -0.025892403
-0.012342263 -0.039030254 -0.20886084 -0.016786624 0.13002157 -0.07275695 -0.120837 -0.09774422
-0.008981829 -0.05933744 -0.17221814 -0.04290407 0.22471681 -0.059849452 0.014181609 -0.22883521
-0.19566227 -0.019255789 0.05515561 0.09494603 0.0561669 -0.098310284 -0.18119082 0.289141
0.036257017 0.018446278 0.009087335 0.05054586 -0.020058822 -0.08574966 0.1224614 0.11066344
0.20261818 0.06356633 -0.017288908 -0.20616326 -0.06962793 0.03915923 0.10779714 -0.18719652
-0.014253912 -0.18738404 -0.039745506 0.01404689 0.04457625 -0.15526202 0.17154269 0.002361649
0.010052738 0.13122422 -0.16739324 0.025724867 0.016888727 -0.12977487 0.147137 -0.10058015
-0.015669348 -0.03731576 0.079576045 -0.12756397 0.18565674 -0.11544146 0.02216631 0.0048326254
-0.022680137 0.11215697 0.106374264 0.18776184 -0.055394158 0.05622109 0.01894233 0.09097281
-0.14300294 0.15433408 -0.02481731 0.16640967 -0.07576355 0.26306555 -0.080889486 0.07321615

tokenizer.conv_layers.1.0.weight f4 [32, 64, 7, 7]
00000000: 162c a83c 05df 28bd 62df 243c 26de c43b
00000010: f0e9 d33c 596c 9b3c 9da8 3cbc 8048 31bd
00000020: d76d 66bd 9f1c a23c fdc4 353c 1bda 56bd
00000030: 6d2a 95bd 0e70 82bc 92de d33c 08fa ddbc
00000040: 70e7 1cbd e5e2 cb3c fdad 233d 6317 013d
00000050: f0ba 12bc 9eb8 18bd 7ecd 1a3b 8dd9 363d
00000060: 15fb 5b3c 6480 133c b84f 9f3c 0717 d23c
00000070: 6ad3 d5bc b761 42bd 0d78 9dbc 025d 993d
00000080: 0e57 943d e435 eebc 4129 14bd 8452 af3c
00000090: dbb0 ce3c 0c20 f33b d84f 823c 5f2a 613d
000000a0: 1f22 5b3d 29e1 d7bb f627 843d 55fe 6a3d
000000b0: 6d09 42bc ee5a f63c 96ca 423d e036 a73b
000000c0: 5214 2a3d e6fe 38bc befb 0f38 a7ab 0cbb
000000d0: aa3d 3abb c6c5 97bb 6b3d 6e3c abeb 56bb
000000e0: 49ff c9bc 0019 8abc 8acf 063c d046 88bc
000000f0: e703 35bd f252 4d3d de4e 41bc 7274 57bc
00000100: b456 17bd ef6a 54bd 924a 33bc 4e0b dcbc
00000110: 1a69 06bd 1cc4 61bc 3f99 84bc ebd5 57bd
00000120: 7dbd f3bc 740f a1bc bb83 20bc 2d86 253b
00000130: 7880 5fbb 8d98 35bd 5c0f bb3c 7d6a 93bc
00000140: 4dbc 693d 0c19 cb3c 4568 163d 0d10 ff3c
00000150: af58 9fbd efb2 0bbc d822 0ebd 97ef 6e3d
00000160: c84f 8e36 371e 8c3d 7d15 863b de13 7abd
00000170: 7b1d 44bd 3498 f3bc ef40 073c b536 81bc
00000180: 8087 bb3c a6b9 413d 51ca d83c cdf9 5cb8
00000190: 27b0 973b 1411 6a3c 3eeb 25bd f4ed 1c3b
000001a0: 142a 1a3c 365e ebbc c747 bbbc b0ec bf3c
000001b0: aba7 bfba 9777 063d 44c5 05bd 74b7 b43c
000001c0: 7f32 22bd 4dd8 10bc ab2f 3ebd 3da6 e83c
000001d0: a35e 8b3b 745c 3abc 1b8d 14bd 3c11 4bbd
000001e0: d3cd 82bd b4ea e0bc 2eef 843c fa98 f43c
000001f0: a056 1bb8 c1e0 63bd afae 1cbd b9a5 1839
00000200: 1921 9638 dd0c 7ebc f52e 4d3c f602 893d
00000210: 7cf6 353d 25ca 7cbc 9af0 96bd 5ab7 973c
00000220: 67ce b0bc 558c 973c 87ff 383d 9204 8e3d
00000230: 2e66 2cbd 905c 7ebc a64f 79bd 49fd 2dbb
00000240: f517 043c 62a8 723d 4241 6e3d 8e68 bf3b
00000250: 2b73 953c 06c4 f33b 6390 f1ba 1e41 52bd
00000260: a844 79bc 688b 0abc f8eb 33bd c549 5abd
00000270: 5282 cabc 48a6 ccbb 9102 27bd daa6 5dbc
00000280: e362 08bd 388f 73bd f997 03bd aa4d 74bd
00000290: 7f10 b13c 22ef bbbc 7d0e 1b3a 5d8f 47bd
000002a0: ac2b efbc a040 64bd e754 6f3c c961 8239
000002b0: 8d4b ec3c a1a0 b63c e38f 503c 557a babc
000002c0: f1ad 58bd e730 8dbd be68 90bc 9856 c2bc
000002d0: 8527 643c 01bb 523c b94d 9d3b 4612 76bc
000002e0: e607 21bd 4f08 68bc 51e0 6c3b e772 123d
000002f0: 905c eb3a 09c7 95bc 7c5a dbbc 2452 7bbd
00000300: c032 ffbc ae42 443c 41b9 4dbb 9fc9 3abd
00000310: d326 58bb c174 df3c 3f98 793c 4486 0fbc
00000320: a92e 8bbc cad3 693d b183 533c d493 6cba
00000330: 1844 6fbc ce32 2cbd c35a b93c c26b 32bc
00000340: ff30 06bd f47a 093c 53bf 253d 13b2 1fbd
00000350: 148b af3b 4ee3 a6bd d152 f0bc 018e dabc
00000360: e0c7 323d d441 6fbd d7a4 2b3c b09d e2ba
00000370: 0439 2fbd ab9f b43c d5b1 353d a013 993d
00000380: a842 00bd ef39 b73b b8ac 7f3d 6145 1d3d
00000390: 1875 993d ba93 413d b237 203d fc8c ee3c
000003a0: b925 81bc 3f1c 8a3c 4862 cd3b 0d88 9a3c
000003b0: ab97 123d e2c0 c63d dca7 6d3d 0c79 6ab8
000003c0: 4225 51bb 53e2 4c3d 09d2 1dbd 354c 373d
000003d0: 99c5 013d 10cc 053c 5598 823d dd03 963b
000003e0: b74f 883d cc53 363d 686b 613d 5457 543d
000003f0: 988c e73c a999 fb3b afea c8bc 33e5 8bba
0.020528834 -0.041228313 0.010063024 0.0060079275 0.025868386 0.018972563 -0.01151481 -0.043282032
-0.056257095 0.019789038 0.011094329 -0.052454095 -0.07283483 -0.015922572 0.025862966 -0.027096763
-0.038306653 0.024888465 0.03996085 0.031516444 -0.008955702 -0.03728544 0.0023621018 0.044641066
0.013426562 0.009002779 0.019447193 0.025645746 -0.026101787 -0.04745647 -0.019222284 0.07488443
0.07243167 -0.029078431 -0.036172155 0.021401651 0.025230816 0.007419592 0.015907213 0.05497205
0.053499337 -0.0065881205 0.064529344 0.057371456 -0.011843068 0.030072656 0.047556482 0.005102977
0.041523285 -0.011291241 3.432831e-05 -0.0021464617 -0.0028418102 -0.0046317307 0.01454101 -0.0032794278
-0.024657862 -0.016857624 0.008228192 -0.016635329 -0.044193175 0.05012793 -0.011798589 -0.013150321
-0.03694792 -0.051859792 -0.010943072 -0.02686086 -0.032815076 -0.013779666 -0.016186355 -0.052694242
-0.029753441 -0.019660689 -0.009797032 0.0025256977 -0.0034103673 -0.044334937 0.022834472 -0.017995114
0.057064343 0.024792217 0.036720533 0.031135583 -0.07780587 -0.008526548 -0.0347012 0.05833396
4.2412175e-06 0.068417005 0.004091917 -0.061054103 -0.047879677 -0.029735662 0.0082552275 -0.015773157
0.02289176 0.04729619 0.02646366 -5.2684733e-05 0.0046291533 0.014286298 -0.040507548 0.0023945542
0.009409446 -0.028731447 -0.022861375 0.023428291 -0.0014622113 0.032828894 -0.03265883 0.022060134
-0.039598938 -0.008840633 -0.04643218 0.028399581 0.004253225 -0.011374582 -0.03626738 -0.049576983
-0.06386914 -0.027455665 0.016227331 0.029858101 -3.7035556e-05 -0.055634264 -0.03825253 0.00014557586
7.158722e-05 -0.0155059965 0.012523402 0.06690018 0.04442452 -0.015429054 -0.0737011 0.018520046
-0.021582795 0.018499533 0.045165565 0.069344655 -0.042089634 -0.015524998 -0.060866974 -0.0026548675
0.008062352 0.059242614 0.058167703 0.0058413213 0.018243393 0.0074391393 -0.0018429871 -0.05133163
-0.015214123 -0.008456089 -0.04392621 -0.05329301 -0.024720345 -0.006245408 -0.040773932 -0.01352855
-0.03329743 -0.059462756 -0.032127354 -0.05964438 0.021614311 -0.022941176 0.00059149397 -0.048720706
-0.029195629 -0.055725694 0.014607645 0.00024868388 0.02884462 0.02229339 0.012729618 -0.02276341
-0.05290026 -0.06894093 -0.01762807 -0.023722932 0.013925438 0.012861968 0.004800525 -0.015019005
-0.039314173 -0.014162137 0.0036144445 0.03575411 0.0017956663 -0.018283384 -0.026776545 -0.061357632
-0.03115213 0.011978788 -0.0031390938 -0.045602437 -0.0032982125 0.027277352 0.015234052 -0.008760039
-0.016990023 0.057086743 0.012909816 -0.00090247137 -0.014603637 -0.04204064 0.022626286 -0.010889949
-0.03276157 0.008391131 0.040465664 -0.038988184 0.0053571556 -0.08148824 -0.029336365 -0.02667904
0.043647647 -0.058412388 0.010476313 -0.0017289426 -0.042778984 0.022048792 0.044359047 0.07474446
-0.03131357 0.005591623 0.062420577 0.038396243 0.07493037 0.047260024 0.039115615 0.029119961
-0.015765058 0.016859172 0.0062678196 0.018863702 0.035789173 0.09704758 0.05802141 -5.590268e-05
-0.0031913077 0.050020527 -0.038530383 0.04475041 0.031682584 0.008166328 0.06376711 0.0045780973
0.066558294 0.04451351 0.05503407 0.051841095 0.028265283 0.00767823 -0.024525968 -0.0010673165

classifier.positional_emb f4 [1, 64, 32]
00000000: f699 c3bd b69a 443e d361 43be ec9f 613d
00000010: 68f1 833e 18a9 1d3d 9929 68be 3904 b6bc
00000020: 08e8 fbbd 6544 28be de67 2abe 232f 8ebd
00000030: ed83 5fbe eab5 af3e f4e3 e03c e658 4abe
00000040: 8b5f 713e 9f0e 34be 83da 2c3e 48e5 7e3d
00000050: 8447 98be ef6c b5bc 1657 433d 6234 bb3c
00000060: 0fb0 7e3e ac67 8c3e 6290 88bb 7029 613d
00000070: e402 573d 4f42 dd3e fd12 883d bed6 7ebe
00000080: 4d75 35bd a347 2ebe 6e9e febd 74aa 653e
00000090: 5689 22bd 2551 27bd c5af 19bd 11a8 3abe
000000a0: 1d38 113e 1f83 1bbd 391c e83a 2c2f a33d
000000b0: 16e3 90bc c822 943e 6d6f 5fbd 27af b6be
000000c0: 235f d63d fd10 103d a984 823c 24c1 aa3e
000000d0: 564c 9d3e 1e33 253e 3a60 15be 501a b4be
000000e0: 54cc 843d 7fda 8c3e 58b3 d33d 3f3a 243e
000000f0: 4687 883d 01eb 6f3e 18a0 1d3e c546 e4bc
00000100: 9610 3c3e 9d17 b53d 5bbc 1b3d ec61 86be
00000110: 5e5f 91bc ffe0 09be 48dc f2bd d43f a5bd
00000120: 1d29 18be 2e49 383e 54a6 12be e975 bebe
00000130: 9f10 0abe f4a4 77be d672 62bc b641 1d3e
00000140: f658 fa3c 93c9 c33e 94ac f13e 5c81 50bc
00000150: 1878 b33d ecd6 66be 1a2b adbc 61bb dc3d
00000160: 2024 35bd 612d 7b3d 8295 be3d f44b 1fbe
00000170: b1bf 603e 7d1d d53d 1b5c cbbc 1527 b03e
00000180: 99f7 14be b2c6 d53c 5374 983d 348d 26be
00000190: 79df 813e 1c3d 1a3e cb31 b53d efd5 a1bd
000001a0: e8dc e53d fb34 aabd af55 5bbe 175e 47be
000001b0: 33ac f03d f7b0 45bc 5880 ee3d f069 89be
000001c0: 62f9 07be 59fd 1c3e 4ad0 3bbe cdf3 493c
000001d0: 18d7 eebd 800e 82be 21ae b1be c5de 62bd
000001e0: e386 633e 4cc1 c9bc 97b9 893e d8e5 dd3d
000001f0: a833 1b3e b495 a23d 5990 0d3d 6f0f 30bd
00000200: a150 813e 2a5e 343d 8f60 223e db1b bf3e
00000210: 1cad 0c3f f8ba 09be ff2d d33d 57be 9c3d
00000220: 18e6 3cbd 52dc 69be 71f4 b7bd ea5a 2cbe
00000230: 08aa c1be f1ac 0f3e 0271 04be 15c3 1abe
00000240: 4c57 2c3e 1b3f 8f3c 30da 2dbe f319 4ebe
00000250: 7887 e3bd 749a b33d 9447 a53d d6a2 02bd
00000260: c39d 5a3b 84ee 8d3e d737 acbe 2642 d83d
00000270: baa1 aabe e672 253e aef2 80be 09e7 01be
00000280: e404 943e 38cf 5b3e 5b10 d43d dc82 043e
00000290: f8cd 233e b631 fd3c fe9d 14be 7dda b0be
000002a0: 6dd7 a7be d3a0 1b3e d0a5 b63e 49d1 4a3e
000002b0: 9519 04be 4ca9 813c cc03 923d 8b24 8fbe
000002c0: 0d0e 4f3e 0c45 483d 8c4e b6bd 3ce7 8cbe
000002d0: 5254 78be c6a2 cc3e fe5c c7bd f361 9ebe
000002e0: 8e4a 0fbe 6a71 8abe d858 393e 1775 a9be
000002f0: 7f60 6d3e d9e9 2a3d 5b80 bb3c 83c6 4cbe
00000300: 59e9 83bd 12c7 acbb 0a84 823e 07c0 b5bc
00000310: 1b8c 5d3c 1165 15be 53e5 943d da08 1abe
00000320: dfbc 0d3e 9700 8bbe 9945 5fbd b8c1 ffbe
00000330: 35e6 03bd cc67 323e dfa0 3a3d 5908 7bbe
00000340: 6504 30be e051 4a3e 83c2 04be 1263 b4bc
00000350: 752f 803e 1b12 463e 2e57 893d 54c6 a5be
00000360: 3598 6fbd 6090 a0be 85a1 573d 0a2e 093e
00000370: dea6 fd3d bdf5 c1be a2f3 aa3e 8bdd f03d
00000380: 0fc0 45be 81bf b23d 4af4 7a3e 6265 b0bd
00000390: 1367 423e 3a0c b0be 5d2b f9bd 3053 a93e
000003a0: b0cd c9bd 0e97 01be 15f9 a53c 0060 813e
000003b0: 2da0 a83d 9039 c63d 3ac8 cfbe 385c 003e
000003c0: f388 a0bc b34e 8b3e 9eee afbd f964 71bd
000003d0: 44f2 5c3e ca3f c63b b9e6 873e 7715 e33d
000003e0: f926 803d 0a48 b8bd ab17 ac3e a600 5dbe
000003f0: af17 023e cb47 8fbe 55e9 7a3e 7471 6d3e
-0.0955085 0.19199643 -0.19080286 0.055084154 0.25770116 0.03849134 -0.22672118 -0.02221881
-0.12300116 -0.1643234 -0.16641185 -0.06942584 -0.2182767 0.34318477 0.027452447 -0.19760475
0.23571603 -0.17583703 0.1688023 0.06223038 -0.29742062 -0.02214667 0.047690473 0.022852127
0.24871849 0.27422845 -0.0041676024 0.05497116 0.05249299 0.43214652 0.06644247 -0.24886605
-0.04430132 -0.17019515 -0.12432562 0.22428304 -0.039681755 -0.04084887 -0.037521143 -0.18228175
0.14181562 -0.037966844 0.0017708606 0.07967982 -0.017686408 0.28932786 -0.054549623 -0.35680506
0.10467365 0.03517245 0.015932398 0.3335048 0.30722302 0.16132781 -0.14587489 -0.35176325
0.06484285 0.2751045 0.103369415 0.16037844 0.06666426 0.2342949 0.15393102 -0.027865777
0.18365702 0.088423945 0.038021427 -0.26246583 -0.01774567 -0.13464735 -0.118584216 -0.08068815
-0.14859433 0.17996666 -0.14321262 -0.37199333 -0.13482903 -0.24184018 -0.013821324 0.15357098
0.030559998 0.38239726 0.4720198 -0.012726154 0.087631404 -0.22542924 -0.021138716 0.10777927
-0.044223905 0.061322574 0.0930586 -0.15556318 0.21948124 0.10406015 -0.024824193 0.34404817
-0.14547576 0.026095722 0.07444062 -0.16264802 0.2536581 0.15062374 0.08847388 -0.07902133
0.11223775 -0.083108865 -0.21419404 -0.19469486 0.117515944 -0.0120661175 0.116455734 -0.26838636
-0.13278726 0.1533102 -0.18341175 0.012326193 -0.116621196 -0.25401688 -0.34703162 -0.05538823
0.22219424 -0.024628304 0.26899406 0.10834855 0.15156424 0.0793871 0.03456149 -0.04298347
0.25256827 0.044035114 0.15857147 0.3732594 0.54951644 -0.13450229 0.103115074 0.07653492
-0.046117872 -0.22837952 -0.089821704 -0.16831556 -0.37825036 0.14030816 -0.12933734 -0.1511348
0.16830176 0.017486146 -0.16977763 -0.20127086 -0.11109823 0.08769694 0.08070293 -0.031893574
0.0033358193 0.27721035 -0.33636352 0.10559492 -0.33326513 0.16157112 -0.2518515 -0.12685789
0.2890998 0.21465766 0.10354682 0.12940544 0.1599654 0.030907493 -0.14513394 -0.34541693
-0.32781544 0.15198068 0.3567338 0.19806398 -0.12900384 0.015827797 0.071296304 -0.27957568
0.20220204 0.048893973 -0.089017004 -0.27520168 -0.24250916 0.39967936 -0.09734534 -0.30934104
-0.13993284 -0.27039653 0.18100297 -0.33097145 0.23181342 0.04172692 0.022888353 -0.19997601
-0.06440992 -0.0052727545 0.25491363 -0.022186292 0.013522173 -0.14589335 0.072703026 -0.15042439
0.1384158 -0.27148888 -0.054509733 -0.49952483 -0.032201964 0.17422408 0.045563575 -0.24514903
-0.17189176 0.19757795 -0.12964825 -0.022019897 0.25036207 0.19342844 0.06706081 -0.32377875
-0.058494765 -0.3136015 0.05264427 0.13396469 0.12385343 -0.37882796 0.33389002 0.11761006
-0.19311546 0.08727933 0.24507251 -0.08613087 0.18984632 -0.34384328 -0.12166474 0.3307128
-0.09853685 -0.12655279 0.020260373 0.25268555 0.08233676 0.09678948 -0.40582448 0.12535179
-0.019596552 0.2720848 -0.085904345 -0.058934186 0.21576792 0.0060500847 0.26543215 0.110880785
0.062574334 -0.08998115 0.33611807 -0.21582279 0.12704347 -0.2798446 0.24503072 0.2318781

classifier.attention_pool.weight f4 [1, 32]
00000000: 644c c3bd 94c3 da3d 95c3 b93d 3163 ccbd
00000010: ed86 c03d e4ff 8fbd 80be cabd 9617 18be
00000020: 345e f4bd 6feb 223e e8f8 0abe e938 ef3d
00000030: 0388 83bd 7163 f43d f268 8cbc a8db f1bd
00000040: ef59 efbd 6644 8b3d 8a2a 003e 43d0 eb3d
00000050: f555 ccbd d467 f73d b896 b63d e1c0 f4bd
00000060: 3958 b3bd 31c3 e5bd 2f40 8b3d a437 fd3d
00000070: f731 953d 5025 89bd 199b 103e 99fb 3abd
-0.09536055 0.10681835 0.090705074 -0.09979857 0.09400735 -0.07031229 -0.09899616 -0.14852747
-0.1193203 0.15910123 -0.13571513 0.116807766 -0.064224266 0.119330294 -0.017139886 -0.11809474
-0.11687075 0.06800155 0.12516227 0.11514332 -0.099773325 0.120803505 0.08915466 -0.11950851
-0.087570615 -0.112188704 0.067993514 0.12364128 0.07284921 -0.0669657 0.14121665 -0.0456501

classifier.blocks.0.pre_norm.weight f4 [32]
00000000: 2841 7c3f fd53 763f 50dd 823f 1611 833f
00000010: 5a31 7c3f fa9a 813f 067a 813f cde5 803f
00000020: 8f81 833f c696 843f 3db1 833f 2ff1 823f
00000030: 3df0 813f cb0a 813f 3901 823f 524c 843f
00000040: d507 833f c8b7 833f 0453 833f 98ac 7c3f
00000050: 004c 823f 790b 833f ad57 813f f6b9 823f
00000060: ac37 7f3f 7d77 813f c9f2 823f f7e4 823f
00000070: 04d0 7c3f da9f 813f bd9d 803f 4e8e 813f
0.9853692 0.96221906 1.0223789 1.0239589 0.98512805 1.012542 1.0115364 1.007013
1.0273913 1.0358512 1.0288464 1.0229853 1.015144 1.0081419 1.0156623 1.0335791
1.0236765 1.029046 1.0259709 0.9870086 1.0179443 1.0237876 1.0104882 1.0213001
0.99694324 1.011459 1.0230342 1.0226125 0.98754907 1.0126908 1.0048138 1.0121553

classifier.blocks.0.pre_norm.bias f4 [32]
00000000: df50 683c 25c0 093d 2ce9 ebbc f059 ad3c
00000010: 23cf 7e3d 3265 8bbc 0706 bf3c 195c 203c
00000020: 8b09 b5bc 2041 0bbd a478 f63c f8c6 dcbc
00000030: f173 f03c 9cf0 433d c796 96bc 056f d73c
00000040: effe 853c 04d3 d8bc 1686 00bd fb5c 613d
00000050: 4b86 853c 6d4c fbbc 2057 81bc 686d 853c
00000060: 3d7e 203c d0f2 6ebc fedc f9ba da65 f1bc
00000070: 9099 ff3c 69b3 7cbc e98c 10bc 1c12 80bc
0.014179437 0.03363051 -0.028797708 0.02116105 0.06220926 -0.017016027 0.023318304 0.009787583
-0.022099277 -0.033997655 0.030086823 -0.026950344 0.02935216 0.047836885 -0.018382443 0.026298055
0.016356913 -0.026467808 -0.031377874 0.055020314 0.016299387 -0.030676091 -0.015788615 0.01628752
0.009795723 -0.014584258 -0.0019063053 -0.029467512 0.031201154 -0.015423634 -0.008822658 -0.015633635

classifier.blocks.0.self_attn.qkv.weight f4 [96, 32]
00000000: 4177 dbbd 1e12 10be 35ad 6bbc b09e 663d
00000010: 26d4 0fbe 0977 a03c 2ee8 b73d e18a 2b3d
00000020: e0df 1abd a500 f13c de32 4c3d 12d7 64bc
00000030: 4a63 f9ba 78ec 3cbe 2352 85bc 8f7a bb3d
00000040: 3c08 833d 61ee 37bc 7d3f 083b ee78 dabd
00000050: b13d 8b3c 10ab 2bbd cabd 513d 43f2 9f3d
00000060: 3a16 103d 42ce abbb 0257 76bd 89a8 8ebc
00000070: 2ceb 2cbe de68 b3bc 19db 12bd 9f7a 363d
00000080: d2b4 5b3b dda5 36be 9d45 3b3d 65c7 183d
00000090: 5c3f 2cbe 9bbf 663d 26d4 a93d be30 bbba
000000a0: d55b 8dbc d523 253d dc98 84ba 1cd2 4c3d
000000b0: 5249 3bbd daa2 75be 4fff a3bc 2eca 3d3d
000000c0: 29cc 783d bdbe 213d c128 3fba 1a37 04be
000000d0: 8a11 02bd 4b9e 38bd 2145 9b3d 6081 9f3d
000000e0: 69c1 b33c 90e3 2d3d f85e d7bc daa0 603d
000000f0: 07e2 14be 97f0 a33c eecb 4d3b 93a4 923d
00000100: 55f1 6a3c feba 043e dbd4 24bd 1daa f6bb
00000110: 08d5 0f3e 6a04 1a3d 61c5 a0bd a8dd 173c
00000120: 0247 d5bb f7f4 85bc f5c4 433c 0f03 51bd
00000130: 1449 f63c 9c37 523e 9971 0ebd 73a5 173b
00000140: 6b81 9bbc ff95 32ba e91f d4ba fccf 063e
00000150: 1faa 7bbc 0c21 1dbc 6d57 07bd b568 73bd
00000160: 3d3b f9bc 6527 54bd a801 dc3c 9a3d 55bd
00000170: 0214 263e f210 343b 43f8 bebc d359 85bd
00000180: 0093 7d3c 3f6e edbd 5807 2b3d b348 453c
00000190: 390e 05be bd19 713d 68a6 4f3d 2ecf b0bb
000001a0: c370 ac3c 883c 023d a397 97bb f1e7 2b3d
000001b0: 2132 2fbd b1c9 54be e167 413c d1ea 3c3d
000001c0: 87c4 1f3c 5f4f 9a3b b78e 633c 94b8 02be
000001d0: 6e4c 9c3b 5ad4 293c be51 cc3d 7132 943a
000001e0: 4a34 3cbb efab 4a3d fea7 6cbd 8c54 ce3c
000001f0: d3b2 20be 3a94 fa3c 6eac 953c dad8 8f3d
00000200: 7889 673c 18a3 063e cb99 0cbd 63b6 91bd
00000210: 697b e73d 45c3 2dbc a802 20bd 1542 6c3c
00000220: dafd 833c d9ff 07bd 0023 d9bc d04d 7cbc
00000230: 08d7 113d d463 353e 66e2 d03c bc06 86bc
00000240: 0b38 a43a 9151 2ebd 398c 00bd 8ba3 093e
00000250: 8c6f febb 5070 0dbb d0ba 36bd c9f3 c9bc
00000260: 4ba3 af3c 59d9 36bd ce41 523d d4b4 adbc
00000270: a2f8 183e 8809 65bb 4e80 1bbc cd7a 80bc
00000280: c306 073d 2e7f ca3d 6ad9 c9bc f0bf afbd
00000290: 7609 c33d faa5 8a3d 6532 efbc 56e1 ebbb
000002a0: 7f0f 4f3c 9acc c8bc 75dc 653c b0d4 943c
000002b0: cc24 293d 8d62 ea3d 7367 753b 87df 37bd
000002c0: 8b57 053c 861f a2bc 1cf7 babc 41f9 983d
000002d0: a3de fa3b 447a f33b 8370 39bc 493d 83bd
000002e0: 2835 9d3c d5c7 4ebd d20a 8a3c 3942 13bd
000002f0: aff2 d13d de5a fabc 72f7 c4bc 3915 ecbc
00000300: 16e6 49bd 1a44 08be a258 293d d101 3e3d
00000310: bc41 2abe 2b12 5a3c de9d 7b3d e7cc 0cbb
00000320: 2dc5 12bc eb60 403d f078 7cbc 1bdf f83c
00000330: 6cde 1a3c 8714 2ebe cb7f 0bbb 549f 053d
00000340: 9817 293c 3873 283c e3b3 4e3c 5e5a eebd
00000350: 9f0e 8bbc ceec 75bc 0a80 0e3d 81d1 8a3d
00000360: 0631 c43b 4acc 493c 0d56 7cbc 6d05 9d3c
00000370: 6d85 20be be3f 2b3c d90f a73c 29c6 1b3d
00000380: ac35 adbb 2077 013e 6841 813d 79c0 45bd
00000390: 19cb b43c a5a2 99bb 0c6c 8abd 1b77 29bd
000003a0: 81ad 563d 122a e83c dd14 ccbc 487f 43bc
000003b0: cb7a f4bc 7e4f dc3d e3e0 b5bc ff36 34bd
000003c0: fc59 97bd 5e84 4d3c f557 e8bc 3e4a 883d
000003d0: 7b5d 593a 3bca 0cbc c4e7 b03c 7ff3 d9bd
000003e0: 8644 afbc 4569 9abb 2c00 353d fe08 6abc
000003f0: fce6 2e3d 39f5 193d b188 363d 3f1e 3a3d
-0.10716105 -0.14069411 -0.0143845575 0.05630368 -0.14045772 0.01958801 0.08979832 0.041880492
-0.03781116 0.029419253 0.0498532 -0.013967292 -0.0019026783 -0.1844958 -0.016274517 0.091542356
0.06398055 -0.011226268 0.0020789795 -0.10667597 0.01699719 -0.041911185 0.051206388 0.0780988
0.035177447 -0.0052430937 -0.06014157 -0.017414348 -0.16886586 -0.02190059 -0.03585348 0.044550534
0.0033524525 -0.1783671 0.045720685 0.037299532 -0.16821045 0.056335073 0.08292417 -0.0014281494
-0.017255703 0.040317375 -0.0010116356 0.050005063 -0.04572422 -0.23987904 -0.020019202 0.04633539
0.060741577 0.039488543 -0.00072921446 -0.12911645 -0.031755008 -0.045072835 0.07581545 0.07788348
0.021942811 0.04245335 -0.026290402 0.0548409 -0.14539348 0.020012183 0.003140207 0.07160296
0.014339765 0.12961957 -0.040242057 -0.0075276033 0.14046109 0.037601866 -0.07850147 0.009269156
-0.006508709 -0.01635216 0.011948814 -0.051028308 0.030064143 0.20529026 -0.034776304 0.0023139387
-0.01898261 -0.00068125123 -0.0016183826 0.13165277 -0.015360384 -0.0095903985 -0.03304236 -0.05942603
-0.030423755 -0.051795382 0.026856259 -0.0520607 0.1621857 0.002747592 -0.02331174 -0.06511273
0.015476942 -0.115932934 0.04175505 0.012041259 -0.12993707 0.058862437 0.050695807 -0.0053957915
0.021049863 0.03179601 -0.004626231 0.041969243 -0.042772416 -0.20780064 0.011804552 0.046122376
0.009751446 0.004709169 0.013889006 -0.12765723 0.0047698533 0.01036557 0.099765286 0.0011306537
-0.002871769 0.049480375 -0.057777397 0.0251868 -0.15693216 0.030588258 0.018270697 0.07023783
0.014131896 0.13148153 -0.034326356 -0.07114866 0.113028355 -0.010605638 -0.039065033 0.014420052
0.016112257 -0.03320298 -0.026505947 -0.015399411 0.03560546 0.17713863 0.02549858 -0.016360633
0.0012528909 -0.042558257 -0.031383727 0.13441293 -0.0077647623 -0.0021581836 -0.044611752 -0.024652379
0.021440169 -0.044640873 0.051332287 -0.02120439 0.14938596 -0.0034948308 -0.009491039 -0.015683556
0.032965433 0.09887539 -0.024639804 -0.08581531 0.09523289 0.06769939 -0.029198835 -0.007198493
0.012637972 -0.024511624 0.014029612 0.018167824 0.041294858 0.11444578 0.0037445694 -0.044890907
0.008138548 -0.019790422 -0.022822909 0.074694164 0.007655935 0.0074303467 -0.011318329 -0.064081736
0.019190386 -0.050483543 0.016850863 -0.035951827 0.10251366 -0.030560907 -0.024043772 -0.028818714
-0.049291693 -0.13307229 0.041344292 0.04638845 -0.16626638 0.013309996 0.06142985 -0.0021484436
-0.008958143 0.04696743 -0.015409693 0.030379822 0.009452444 -0.17000018 -0.0021285887 0.03262265
0.010320567 0.010281377 0.0126161305 -0.1163833 -0.016974745 -0.015010072 0.034790076 0.06778241
0.0059872894 0.012316773 -0.0154013755 0.019167626 -0.15675898 0.010452209 0.020393299 0.038030777
-0.005285939 0.12643099 0.063113034 -0.04827926 0.0220695 -0.004688578 -0.067588896 -0.041373353
0.05241156 0.028340373 -0.024912292 -0.011932202 -0.029843709 0.107573494 -0.02220196 -0.04399776
-0.0739021 0.012543766 -0.028362254 0.066547856 0.0008291823 -0.008593137 0.02159489 -0.10642146
-0.02139498 -0.004712256 0.044189617 -0.0142843705 0.042700753 0.03758738 0.044563953 0.045439

classifier.blocks.0.self_attn.proj.weight f4 [32, 32]
00000000: 1797 1ebd deb5 86bd 3469 af3c 2484 923c
00000010: 5bbb 083d 12ac 68bd 3305 d9bb ae99 8d3c
00000020: 643e 083a 2eb6 0a3d 96a0 2ebd 6a17 f63c
00000030: 31bf 143d d846 7e3d 1656 52bc 05b5 bcbc
00000040: 1f8b 0fbd 2078 c43c cf5a 17bd d7f7 7dbd
00000050: 169e 01bd 7184 733d ed40 b9bc c334 0e3d
00000060: f39c 4fbd 12fb c53c 8059 ad3c e5fc 9d39
00000070: c948 f5bb 5f34 853c 9f17 f3bc 3f45 1ebd
00000080: e888 f43b 9f18 523d a9c6 42bd df24 9fbc
00000090: db65 2ebc 2312 023c f06d 42bc d443 e9bc
000000a0: 694d 5ebc e2b7 65bd 0d1e bbbc 54b0 043c
000000b0: f90b 8d3c ad31 b1bc aee9 f73c 1c88 90bb
000000c0: 9c6b dfba 4e85 ffbc 4788 f13a efcd f33c
000000d0: 3777 003d 3359 9fba ede3 aebb 366a e3bc
000000e0: 1b5e 403d 2390 f6bc 821c ce3a 1abf bbbc
000000f0: 921e 08bd a3b8 63bd 8187 9e3c 333c bfbc
00000100: 5f90 a13b 6ebd 823d 0622 6cbd 374d 7bbd
00000110: 1613 5cbd c772 39bc cae3 653d a8cf d6bb
00000120: 6c81 8abb c374 a7bd 466d 433d 4e0f bbbd
00000130: fd1a 2dbb b5b5 bdbd 8fe4 673d dba2 833d
00000140: aec0 673b 065a c13b 2b1e 143d c7f0 243d
00000150: e856 df3c 44b3 adbd a600 0e3d 942a 74bd
00000160: 6726 8f3d 3d08 85bc c565 3abd 0b51 8bbd
00000170: 1f1c 533a b01b 08bc 6a3e eb3c b340 1c3d
00000180: fd79 b03c 1dfb ffbc 22f7 073d 0cf9 c93c
00000190: f0f7 6b3d 9a6f 43bd 7c1f 29bd c269 923d
000001a0: 8989 08bc be95 b43c 7aac 5e3b 4279 563d
000001b0: ed49 5cbd 2f71 4e3d c7a1 073a 20da 46bd
000001c0: 7b4e 40bc 6b61 553d a63d a8bc 6d78 69bd
000001d0: d563 613a 4b09 133d 059f 53bc 6a57 833d
000001e0: 3ed9 a6bc 5b4b 083d bab2 8e3d c19a e33c
000001f0: 9d7a 233d 56ae 773d 871d 453c adc4 f8bc
00000200: 7ab0 fd3c c535 f83b 14c8 bfbc e946 0a3b
00000210: bb79 8dbd fea5 b43c c4fa 283d 5ce7 d2bc
00000220: da50 633c 8e5e 653c e078 153c e107 4ebc
00000230: f3da 67bc 6ce5 26bd b22b 323d f78d 673d
00000240: 885c 2d3d 99ca 51bd 7794 d93c 2a8a e43c
00000250: 6c20 163d eb72 5bbb 6eb4 b23c 7814 fabb
00000260: 16c7 1c3d 8cf7 0bbd e5a2 88bd 201c 37b9
00000270: 17e3 a53c 82aa 05bd 41b0 a03c cca2 893c
00000280: 8bc0 153c 8a79 04bd 0990 203d 6969 dd3c
00000290: fd48 6f3d 5c65 21bd bcf8 8cbb c295 663c
000002a0: 051a 083d ccd9 303d 5a9d 87bc 04fe abbb
000002b0: 2b16 ba3c f00d e13c f3dc 4cbd 7c04 4abc
000002c0: 4f97 f63a 0512 ac3c fa2d abbc 2780 eebc
000002d0: 194f a0bb 7265 df3c f723 cf3b 5a6e dd3c
000002e0: f9b1 48bd dce1 ff3c e2b9 a63c 2685 37bc
000002f0: 1758 273c b00a 2f3c 8646 fb3c 0e03 febc
00000300: 2d60 9ebc 69f5 e9bb 1a41 9e3b c533 953b
00000310: 1c74 413d f0b4 f6bc e4af 08bc ecba 7c3d
00000320: c046 453d f7c5 393d 81dd d5bb 2f5f c53b
00000330: 259c 8fbc f6d7 323c e10f 97bd c332 2bbd
00000340: 460a 29bc 70d9 0a3d 3774 3fbd ffb0 aebc
00000350: 0b63 2abd 3cf0 8a3d dffb 6ebd ecfb 4d3d
00000360: 4259 3dbc c51d 823d 2ee8 a13a f8ef e33c
00000370: 3da5 403a da76 0b3d 54f9 86bd 94f6 19bc
00000380: b046 13bd 6c06 bebc a589 453d f639 cb3c
00000390: 8f60 123d 064f 8cbd 1350 14bd 2a9b 863d
000003a0: 62a0 123d a27c 663d fe36 06bd 2864 c53c
000003b0: 692c 6dbd 91a9 623d 5b47 b4bc a7a5 71bd
000003c0: bbde 2dbc d732 843d f06c cbbc d605 71bd
000003d0: 59ca e2bb 576f 2e3d 46aa 51bc ab5b 453d
000003e0: 43b9 8ebd 09ed 573d c877 323d 79f8 453d
000003f0: 7eb9 e23c 163e 113d 6215 29bd 51de f8bc
-0.03871831 -0.06577657 0.02141247 0.017885275 0.0333818 -0.056804724 -0.0066229342 0.017285194
0.0005197285 0.033865146 -0.042633615 0.030040462 0.036315147 0.06207928 -0.012837907 -0.023035536
-0.035044786 0.023983061 -0.036951836 -0.062003937 -0.031644903 0.059452478 -0.022613967 0.034718286
-0.050686788 0.024167571 0.021160841 0.00030133795 -0.0074854833 0.016260324 -0.02967435 -0.038640257
0.0074626096 0.05129301 -0.04755274 -0.019426761 -0.010644401 0.007938894 -0.011867031 -0.028474726
-0.013568261 -0.056083567 -0.022841478 0.0080986805 0.017217623 -0.021630133 0.030262794 -0.0044107568
-0.001704562 -0.031191494 0.0018427455 0.029761283 0.031363692 -0.0012157321 -0.0053372295 -0.027760606
0.046964746 -0.030098027 0.0015725049 -0.022918273 -0.03323228 -0.055596005 0.019351723 -0.023344135
0.0049305405 0.06383787 -0.057649635 -0.061352935 -0.05372914 -0.011318869 0.05612544 -0.0065555163
-0.004226854 -0.081765674 0.047711633 -0.091337785 -0.0026413791 -0.092631735 0.056614455 0.064275466
0.0035362649 0.005900624 0.036161583 0.040268686 0.02726312 -0.08481458 0.034668587 -0.05961092
0.069897465 -0.01623928 -0.04550721 -0.06802567 0.00080532016 -0.008307382 0.028716285 0.03814764
0.021542544 -0.03124767 0.03319467 0.024654888 0.0576095 -0.047713853 -0.04128979 0.07149078
-0.008333572 0.022044059 0.0033977316 0.052361734 -0.05378144 0.05040091 0.0005173948 -0.048547864
-0.011737461 0.05209486 -0.020537209 -0.056999613 0.0008597945 0.035897534 -0.012916331 0.06413157
-0.020367261 0.03327499 0.06967683 0.027783753 0.039911855 0.060468994 0.012030966 -0.03036722
0.03096794 0.007574769 -0.023410834 0.0021099395 -0.06907984 0.022051807 0.041254774 -0.025745086
0.013874257 0.013999594 0.009123057 -0.012575121 -0.014151323 -0.040746137 0.043498702 0.056531873
0.042324573 -0.051218603 0.026560051 0.027897913 0.036652014 -0.0033485244 0.021814551 -0.0076318346
0.0382758 -0.034171626 -0.06671695 -0.00017462717 0.020249886 -0.032633312 0.019615294 0.01680126
0.009140144 -0.03234247 0.039199863 0.027027803 0.058419216 -0.039403304 -0.0043021124 0.014073791
0.03322794 0.043176457 -0.016554523 -0.005248787 0.022715649 0.027472466 -0.0500154 -0.012330171
0.0018813404 0.021004686 -0.020895947 -0.029113842 -0.0048922417 0.027270053 0.006321426 0.027030159
-0.048997853 0.031235628 0.020352308 -0.011201179 0.010213873 0.0106837 0.030673277 -0.031007316
-0.01933297 -0.007139851 0.004829538 0.0045532905 0.04722987 -0.030115575 -0.008342717 0.0617017
0.048163176 0.04535481 -0.0065266495 0.0060233097 -0.01753051 0.010915747 -0.073760755 -0.041796457
-0.010317391 0.03389877 -0.04674169 -0.021324633 -0.04159836 0.06784102 -0.05834567 0.05028908
-0.011556925 0.06353334 0.001235252 0.027824387 0.0007348841 0.034048893 -0.06590524 -0.009397168
-0.035956085 -0.023196422 0.04822697 0.024807911 0.035736617 -0.0685101 -0.036209177 0.06572564
0.035797484 0.056271203 -0.03276729 0.02409561 -0.05790368 0.055337492 -0.022006681 -0.05899587
-0.010612185 0.064550094 -0.024832219 -0.058843456 -0.0069210944 0.04258665 -0.012796944 0.048183125
-0.069689296 0.05271629 0.043571264 0.048332665 0.02767634 0.0354596 -0.041280158 -0.030379446

classifier.blocks.0.self_attn.proj.bias f4 [32]
00000000: 49c5 00bd 6d51 053d e118 863d d834 40bd
00000010: ec23 163d 297a e8bc 7ba2 43bd 7a08 6bbd
00000020: a79d e4bc 95a7 5e3d d6d5 21bd e5eb 923d
00000030: 1f93 1abd 254e 033d b641 7fbc 0ea6 36bd
00000040: 1473 39bd a4a7 343d ad84 763d e1da 213d
00000050: 6666 9fbc f6e0 8a3d 0cb1 883d bd37 1cbd
00000060: 6a5a 4ebd c7a7 0cbd f9c5 a53c f071 763d
00000070: 923e 0a3d b37f 83bc 68c1 3d3d bf84 493c
-0.031438146 0.032548357 0.06547714 -0.046925396 0.03665535 -0.028378563 -0.047762375 -0.05738113
-0.027907206 0.054359037 -0.03951057 0.071738996 -0.03773796 0.032056946 -0.015579632 -0.044591956
-0.045275763 0.044105187 0.060185123 0.03951538 -0.019458007 0.06781189 0.06674394 -0.038139094
-0.050379194 -0.034339692 0.020236002 0.060167253 0.033751078 -0.016052103 0.046327025 0.012299716

classifier.blocks.0.linear1.weight f4 [96, 32]
00000000: 556e bdbc 24e7 8f3c 2547 143d 8d18 a63c
00000010: 6724 2f3c 11aa 30bd 7aff 68bc aa4a eb3b
00000020: d0eb e43c 7299 0fbd 266d d2bc 306d e73b
00000030: 6ea8 f63a befe e83c 330f 0abc 7bb1 483c
00000040: 000a d3bc bbfe ca3c fe35 c43c 39ad 003d
00000050: b4f3 043d 4890 b0bb a77a 9c3b 86bf f13c
00000060: 591b 9a3c fd17 64bb 8970 33bd 94a9 5a3c
00000070: 0daf f7ba f8cc 47bc 8611 c7bc 1231 da3c
00000080: 46c7 b23c a36e f3bc c696 cfb9 6969 ff3b
00000090: a2c6 9dbd 15d1 663d 1e9d da3c 28d2 203c
000000a0: 3a05 763d df78 35bd 3e9b 8d3c 9037 a9bd
000000b0: ef9b 70bb a453 3ebd 2e80 423d 48d4 81bc
000000c0: 0d76 bf3c 6b9d 3fbd 4971 6abd b71f 86bd
000000d0: a2a4 343c 2ae8 88bd dcb2 54bc 29f2 f43c
000000e0: 4622 5dbb 6cad 623d d599 b6bd 0c7d 04bd
000000f0: fae6 6abd 1a98 cd3c 40d1 8abd 4ebe ca3c
00000100: cf2c 18bd a6cc e03c f40a 143d 8b14 5d3b
00000110: a7eb 6b3c 2721 b9bc 79b7 ae3c 17c3 03bc
00000120: 452a cdbc 57cc a339 cd30 b4bc 01db 67bd
00000130: 43c0 db3c 76c9 943c a60d 043d fc1c 993c
00000140: 301f 8f3c 349a 25bc ce32 4a3d 8af3 0f3d
00000150: cf59 7b3d 79e9 8e3c 80a8 753b a02f 383c
00000160: f787 a1bc 8667 e63a 00bb 57bb 2b85 3abb
00000170: 9167 7cbc 1d57 a5bc b301 b3bc bba1 00bd
00000180: 85a4 d83a bfcb 653d 76ea 94bb 5196 06bd
00000190: 6d5d 303d 7908 6a3c 95e6 9cbc c673 3fbd
000001a0: 2234 013d cdc1 b9bc fe78 0ebd a86d 1a3c
000001b0: 2826 b3bc bb07 073d fc6a 0a3d 2eff 35bd
000001c0: 3559 2abd 86de 133c e09a c63c b73b 413d
000001d0: caa7 403c 869e 29bc b0cd f9bc 5702 07bd
000001e0: a07a 1bbd 932d 3fbc 6395 143d aac7 1d3d
000001f0: 7450 d93c 55af 0a3d 99f4 a53c 4c36 29bd
00000200: 68fa 2fbc 0d23 bd3c ad63 1abc 610e a83b
00000210: 8377 f53c d52e 1e3c c733 b2bb a2a8 213d
00000220: 05cc 2d3c 021d cabc c9d8 da3c 32b3 a93b
00000230: 00b1 e93b 28f1 133d 0c86 6c3c 5f12 6d3b
00000240: 879b ac3c 11f5 683d 3d79 233d f66b a13d
00000250: e2bf aa3c dc48 2a3c ccc3 ee3c 23b9 9f3c
00000260: a2d2 c33b 00c8 273b 56b4 88ba 58c1 24bc
00000270: f5fa d53b 2724 27bc d6e1 55bc 18bb 313b
00000280: 97fa b6bb 33e0 c2bb 9395 cfbc f670 4d3d
00000290: 05f6 49bc f2b1 ea3c 1513 733b ea35 433d
000002a0: 1f70 1f3d 8d6c 3ebd c449 133a 9b9d 82bd
000002b0: b433 993c e2d1 90bc 337c f638 bef5 0b3d
000002c0: b907 573c db46 44bc 60ad 79bd b79f 4dbd
000002d0: 68b6 a93d f400 4fbd 6eab 08bd 5452 f93c
000002e0: 29f0 a3bb c9d4 e63c 0fe2 c3bd 72fc 2ebd
000002f0: 629b 31bd 97bb f1bc f37a 54bd 5a35 5bbc
00000300: c908 033d 4584 12bd e5c0 42bd 6780 483d
00000310: 9fbc 4ebd 6a52 293d 4119 acbc 6af6 1a3d
00000320: 103c 84bc 7e7d 8ebd c73d 4a3d 04c8 57bd
00000330: bac9 1e3c 2053 08bd 9597 6f3c 111e 883d
00000340: 36e0 1a3d 875f eebb edfa 73bd aa6c 57bd
00000350: 7d87 833d bd1c 97bd 0bdd d5bd 483f 443d
00000360: bb02 3e3d 2c1f 233d 95b2 90bd 3c53 5cbd
00000370: 6418 23bd cab2 f63c 72f6 a0bc 8748 4dbd
00000380: 0158 8d3c 1439 6f3d dc96 4f3d 9e98 82bc
00000390: e20c 3a3d 6452 323c 4932 7e3b d61f 2ebd
000003a0: f3a3 013b 5946 083d 04fe 51bd a311 c5bc
000003b0: d832 0e3c 97f5 943d 05ba b638 423a 44bd
000003c0: 1b5c 6fbc 7b5e 803a 9064 ce3c ff5b e13c
000003d0: 506e 38bc a4a1 243d c0af d5ba 101d a2bc
000003e0: c0a7 82bd 5056 10bd b7e0 fb3c 3e18 1d3c
000003f0: f794 b03c 72c7 47bc 1810 aa3b b541 aebc
-0.0231239 0.017566271 0.03620066 0.020275379 0.010689831 -0.043130938 -0.014221067 0.0071805315
0.027944475 -0.035058446 -0.025686812 0.0070625767 0.0018818507 0.028441783 -0.008426475 0.012249346
-0.025761604 0.024779668 0.023951527 0.031415198 0.032458976 -0.0053882934 0.0047753635 0.02951027
0.018811869 -0.0034804337 -0.043808494 0.013346095 -0.0018896774 -0.012194864 -0.024300348 0.026634727
0.021823537 -0.029715842 -0.00039594452 0.0077945483 -0.07703902 0.05635174 0.026686247 0.00981573
0.06006358 -0.044304725 0.01728594 -0.08262551 -0.0036714037 -0.046466485 0.047485523 -0.015848294
0.02337172 -0.046780985 -0.057236943 -0.06549018 0.01102558 -0.06684907 -0.0129820965 0.029900627
-0.0033742352 0.05534117 -0.0891606 -0.032345816 -0.057349183 0.025096942 -0.067781925 0.024748947
-0.037152108 0.027441334 0.03614326 0.0033734168 0.014399446 -0.022598816 0.021327721 -0.0080421185
-0.02504457 0.00031242028 -0.021995926 -0.056605343 0.026825076 0.01816247 0.03223958 0.018690579
0.017470926 -0.010107566 0.049364857 0.035144366 0.061364945 0.017445313 0.0037484467 0.011241823
-0.019718153 0.001757846 -0.0032917857 -0.0028460722 -0.0154055515 -0.02018314 -0.021851396 -0.03140424
0.0016528523 0.05610251 -0.0045445515 -0.032858197 0.043057848 0.014284247 -0.019152919 -0.04674127
0.03154386 -0.02267542 -0.034783356 0.009425558 -0.02186878 0.032966357 0.033793435 -0.04443281
-0.04158898 0.009025222 0.024243772 0.04717609 0.011758754 -0.010352736 -0.030493587 -0.032961216
-0.03795874 -0.011668581 0.03627528 0.038520493 0.02652762 0.033858616 0.020258235 -0.041311547
-0.010740854 0.023088003 -0.009423179 0.005128667 0.029964214 0.00965472 -0.0054383012 0.03946746
0.010607724 -0.024672035 0.0267147 0.0051788324 0.0071316957 0.036118656 0.014436256 0.003617428
0.021070255 0.05687434 0.039910544 0.0788192 0.02084345 0.010393348 0.029146098 0.01949746
0.005976037 0.0025601387 -0.0010429721 -0.010055862 0.0065301606 -0.0102014905 -0.013054332 0.0027119573
-0.005584072 -0.005947137 -0.025339877 0.050156556 -0.012326722 0.028649304 0.0037090231 0.04765884
0.038925286 -0.04649024 0.0005618597 -0.06377717 0.018701412 -0.017678205 0.00011753328 0.034169905
0.0131244 -0.011979784 -0.06095636 -0.050201144 0.08286744 -0.05053802 -0.033366613 0.030434765
-0.0050029946 0.028177636 -0.09564602 -0.04272122 -0.043361075 -0.029508395 -0.051875066 -0.013379419
0.0319908 -0.035770673 -0.04754724 0.04895058 -0.05047285 0.04133836 -0.021008136 0.037832655
-0.016141921 -0.069575295 0.04937532 -0.052680984 0.00969165 -0.0332824 0.014623542 0.0664636
0.03781148 -0.0072745713 -0.059565473 -0.052593865 0.06422327 -0.07378528 -0.10442551 0.047911912
0.046389323 0.03982465 -0.07065312 -0.053790316 -0.039818183 0.03011455 -0.019648764 -0.050117996
0.017253878 0.058404043 0.05068098 -0.015941914 0.045422442 0.010883901 0.0038787297 -0.04251083
0.001978156 0.033270214 -0.05126764 -0.024056261 0.008679114 0.07273405 8.713085e-05 -0.04790712
-0.014609362 0.0009793782 0.025194436 0.027509687 -0.011256769 0.040193215 -0.0016302988 -0.019789249
-0.06379652 -0.035238564 0.0307468 0.009588299 0.021555407 -0.012193548 0.005189907 -0.021271566

classifier.blocks.0.linear1.bias f4 [96]
00000000: 3ee7 cf3b e32e c3bc 69b3 363c b48c b93b
00000010: 6a11 803c f018 063c 035e 5b3b 76b1 433c
00000020: ccd6 fdbb bec1 cfbc bc06 eebc eb1a cebb
00000030: 30ec 4eba 028f b83a 8100 0d3b f95c 773c
00000040: 910b 39bc b9fe eabb 2a9b a8bb db51 c43b
00000050: c3b4 763b 40da 95bb 2ca1 49bc c44c 6bba
00000060: f783 b9bc c869 043c 2851 653b 7175 9bbb
00000070: 0d91 d43b 40a9 f33b 04af eebb d1c6 98bc
00000080: a286 343c 1b00 49bc fbb7 b9ba eb75 86bc
00000090: eaac 0cbb dd6e 65bc da04 93ba 36fa a0b9
000000a0: ad48 fdbb abf1 073c 29a7 82bc 37ac 553b
000000b0: 1e96 c8ba 9792 4bbc f043 b43b 91ba 4cbb
000000c0: 2654 fd3b a5e6 8abc ac13 efbc 5396 0939
000000d0: 03b0 e8bb 3120 d13a 2ce1 87bb a114 e5b8
000000e0: d7f0 533c 37cd 013d 502b ccbb 0a24 c63c
000000f0: b69d cb3b 3799 de3b 40f5 17bb a05b 5ebb
00000100: 7e56 febb 822c c53a d2d1 cdbc f67c 1e3c
00000110: 6f8b 243b cfc9 32bc 44ca 2f3c 17ea 833c
00000120: 6f03 4ebb 5e13 8f3c 25a8 6ebb 5008 913b
00000130: 5fa1 92bc 124d 48bb 33f7 56ba 8c7b 103c
00000140: e650 513b 3507 44bb e379 0a3c e688 ac3b
00000150: a3a4 7ebb 9c41 caba 612c 22bc bebc 0f3c
00000160: cfee a239 b9bd a33c 5d48 aabb c6af 393b
00000170: 9491 10bb 73ab e6bb f608 1dbc b1a2 93bc
0.006344705 -0.023826068 0.011151173 0.005662525 0.015633304 0.0081846565 0.0033472783 0.011944165
-0.007746553 -0.025360938 -0.029055946 -0.00628983 -0.0007893471 0.0014080706 0.0021515193 0.01509785
-0.011294262 -0.0071714786 -0.00514545 0.0059912032 0.0037644363 -0.0045731366 -0.012306493 -0.00089759775
-0.022645934 0.008081861 0.0034991 -0.0047442247 0.006487018 0.0074359477 -0.007284047 -0.01864949
0.011018427 -0.012268092 -0.001416921 -0.01641365 -0.002146537 -0.014003483 -0.0011216656 -0.00030704
-0.007729611 0.008297364 -0.015948849 0.0032603869 -0.0015303527 -0.012425086 0.005501263 -0.0031239132
0.0077309785 -0.016955683 -0.029184185 0.00013121338 -0.0071010604 0.0015955028 -0.0041467156 -0.00010923413
0.012935839 0.03168985 -0.006230749 0.024187107 0.006213869 0.006793167 -0.0023186952 -0.0033929124
-0.0077617755 0.0015043172 -0.025124464 0.009673348 0.0025107523 -0.010912373 0.010729376 0.016102834
-0.0031435152 0.01746529 -0.003641614 0.0044260398 -0.017899213 -0.0030563516 -0.00082002877 0.008818518
0.0031939088 -0.0029911522 0.008451912 0.005265343 -0.0038855455 -0.001543093 -0.009898276 0.008773027
0.00031076974 0.019987928 -0.0051966147 0.002833353 -0.0022059428 -0.0070394813 -0.009584656 -0.018021913

classifier.blocks.0.norm1.weight f4 [32]
00000000: 40b9 773f 22c8 813f 972f 783f 524b 813f
00000010: 3794 823f 1073 7c3f 6b24 7b3f 74e2 823f
00000020: 553e 7d3f efd3 803f fc24 813f fe1f 823f
00000030: 6d87 7e3f 55fb 843f eb0b 7c3f fae7 823f
00000040: b7ea 803f b00d 7e3f f7e4 7d3f 2af5 813f
00000050: 5a17 763f 23da 823f 10d6 7e3f a099 803f
00000060: 67bb 823f 0f9c 7d3f 0377 813f 92e7 773f
00000070: 9caf 813f d117 763f f70d 7e3f 9a22 753f
0.96767044 1.0139201 0.96947616 1.0101111 1.0201482 0.9861307 0.98102444 1.0225358
0.98923236 1.0064677 1.0089412 1.0166013 0.99425393 1.03892 0.98455685 1.0227044
1.0071629 0.99239635 0.991775 1.0152943 0.9612938 1.022282 0.99545383 1.0046883
1.0213441 0.9906625 1.0114444 0.96837723 1.0131717 0.9613009 0.9924006 0.9575592

classifier.blocks.0.norm1.bias f4 [32]
00000000: 035f 0e3d 366d c33a 0fa2 333c 27b1 22bc
00000010: b4f9 59bb 373c dc3c 8b8a 6dbc 6dbf cdbc
00000020: d684 bd3c dd63 f93a 9f4e ccbc 6a8e 0d3c
00000030: 10de cabc c9ee b9bb 86cb 0f3d d6c5 77bc
00000040: 96c5 abbc 3e2a 2d3c a060 5a3c 1534 553b
00000050: 3372 5c3c d78d 823b ff18 c13c 26fd 8ebc
00000060: 3d09 abbc db73 cf3c 080d 8ebc 63de b63c
00000070: ad08 dfba c63a 1d3d ea41 d83c ee50 483d
0.03475858 0.0014909867 0.010963931 -0.009929932 -0.0033260407 0.026884181 -0.014498363 -0.025115693
0.02313463 0.0019026954 -0.024939833 0.008639911 -0.02476409 -0.0056742174 0.035106204 -0.015122851
-0.02096824 0.010569153 0.013328701 0.0032532264 0.013454962 0.003984194 0.02357149 -0.017454695
-0.020878429 0.025323799 -0.017340198 0.02232284 -0.0017016135 0.03838613 0.026398618 0.048905306
