models/test/model.pth (torch, 33508 bytes, 34 tensors)

pos_embedding f4 [1, 1025, 2]
000000 0b 33 67 be bc 3c 36 3f 76 fd d9 be 1c bd ac 3f
       -0.22578065 0.71186423 -0.42576188 1.3495212
000010 04 93 22 bf 6e 55 10 40 47 7a b8 3f 2c 10 98 bd
       -0.6350558 2.2552142 1.4412316 -0.074249595
000020 81 47 32 bf df 41 93 3f cf 77 31 3f 91 47 8c 3d
       -0.69640356 1.1504477 0.6932344 0.06849588
000030 c1 19 e8 3f ed ef c1 be 7b 43 56 bf 81 67 49 bf
       1.813286 -0.3787836 -0.8369672 -0.7867356
000040 b2 5f 2f be 4c b3 3e 3f 7e 7e a0 bf d8 d0 53 3f
       -0.17126349 0.74492335 -1.2538602 0.82740545
000050 d5 50 dc be 46 0b b3 bf 22 1f c3 3e dc 55 1e bf
       -0.4303042 -1.3987815 0.3810969 -0.6184976
000060 4d 10 da 3e 66 17 06 bf 7b 8b 11 bf 7d b1 db bd
       0.42590562 -0.52379453 -0.56853455 -0.107272126
000070 32 bc 63 3f 40 64 26 3f 41 d2 93 be d9 77 89 bf
       0.8895904 0.6499672 -0.28871349 -1.07397
000080 6d ef d0 3f 0e 10 bf 3f 0e 22 d7 3f 00 1f db bd
       1.6323067 1.4926775 1.6807268 -0.10699272
000090 12 58 9d bf 7e af ea 3e 61 45 15 bf 31 b3 de 3f
       -1.2292502 0.45837015 -0.5830899 1.7398435
0000a0 e7 b8 64 bf da 80 4e bf 7f ea 62 3f 46 4e 81 3e
       -0.8934464 -0.8066536 0.8863906 0.2525503
0000b0 9a bf 0c 3f 70 dc 19 bf 58 05 32 be 00 a9 5e 3f
       0.5497986 -0.60101986 -0.17384851 0.86976624
0000c0 e1 e7 cf bf 62 63 77 3f d5 32 b2 bf fa 14 fb 3c
       -1.6242639 0.9663602 -1.3921763 0.03064965
0000d0 ec a0 81 3e 9c 28 02 c0 d5 27 09 c0 0e 50 a9 3f
       0.25318086 -2.0337286 -2.1430562 1.3227556
0000e0 ec 3e 87 bf ec 67 2e 3c f2 6b a5 be 6b 32 e9 bf
       -1.0566077 0.010644894 -0.32308918 -1.8218511
0000f0 76 f6 65 3e 13 db ee 3d f2 34 85 3f 0b f3 34 3f
       0.22457299 0.11662879 1.0406783 0.70683354
000100 86 57 de be 75 d1 cf 3f 95 f6 6a bf d3 91 1b 3f
       -0.4342615 1.6235796 -0.91782504 0.60769385
000110 a9 51 b7 3d 32 75 0a 3d b1 30 ed bf d8 26 16 bf
       0.08951122 0.033803172 -1.8530484 -0.5865302
000120 f6 12 3c 3f 83 06 83 3e 78 69 8d bf ea 5f 24 bd
       0.7346643 0.25590906 -1.1047812 -0.040130533
000130 2e ac 72 bf 33 df 1e c0 b3 d3 a0 3e 4a 46 78 3f
       -0.94793975 -2.482373 0.31411514 0.9698225
000140 a8 3f d2 be a3 11 9e 3f 1f f8 e7 3e dc 2d 74 3f
       -0.4106419 1.2349132 0.4530649 0.95382476
000150 2d bc 74 bd b4 f6 8b 3f fb e6 40 3f bd 72 18 c0
       -0.05974977 1.0934663 0.7535245 -2.382003
000160 35 0f f8 3f 82 15 cf 3f 19 cb db 3f 04 45 a9 3e
       1.9379641 1.6178439 1.7171355 0.33060467
000170 99 6c 5d 3e b5 d5 95 be f9 03 70 3e 83 0c e2 be
       0.21623458 -0.29264608 0.23439015 -0.4415017
000180 59 26 c4 bd de c6 23 bf bb a6 66 3f 89 1c 1c 3f
       -0.09577627 -0.6397532 0.9009816 0.6098104
000190 e5 07 66 be 00 39 ca 3e d3 b3 ac 3e f4 6c ab 3f
       -0.22463949 0.39496613 0.33730945 1.3392625
0001a0 10 64 73 3e 0d 8a 6d 3f ed ee a7 bf 7b 3f 6c 3e
       0.2376864 0.92788774 -1.3119789 0.23071091
0001b0 15 f0 82 3f 7f 42 98 3e 10 b1 86 3f fb 26 45 bf
       1.0229517 0.29738232 1.0522785 -0.77012604
0001c0 e0 58 61 bf 1c 7c bb bf 42 14 ef 3e 31 56 e8 3f
       -0.8802624 -1.464725 0.46695143 1.8151304
0001d0 30 04 ae bf 4b c1 9a 3e e8 62 e5 be de 5d 44 bf
       -1.3595028 0.30225596 -0.44802022 -0.7670573
0001e0 7b e2 c5 3d 0e 7e 1f be 75 e3 c6 3d e1 a1 20 bd
       0.09662338 -0.1557543 0.09711353 -0.03921688
0001f0 e7 08 24 bf 56 09 ea bf 4c 7d d8 be 60 1e b1 bf
       -0.64076084 -1.8284099 -0.42283094 -1.3837395
000200 15 1e 4c be 71 4e 4f 3f cf 1e 59 3f 41 2a a4 be
       -0.1993335 0.8097907 0.84812635 -0.32063487
000210 bb 40 11 bf 40 27 3d 3f 24 96 c7 be ce 0e 2f bf
       -0.56739396 0.73888016 -0.38981736 -0.68381965
000220 ca 0a e7 3e f8 b6 58 bf fc d2 14 3f 85 8d 77 3e
       0.4512542 -0.8465419 0.58134437 0.24175079
000230 6b d3 ca be c5 10 ab bf 7c 8d 5b 3e 3f 85 4a bf
       -0.39614424 -1.3364493 0.21440691 -0.7910957
000240 3c 34 d4 be c0 db 99 bf 6a 71 6f 3e 5d bd 4b 3d
       -0.41446102 -1.2020187 0.23383108 0.049741138
000250 ed 80 e8 3e f3 bf fb bd ed b5 89 3f 55 b0 10 bd
       0.45410863 -0.12292471 1.0758644 -0.035324413
000260 b7 6f a5 be ed ec a1 3f fd 2b d7 3f 9b e6 20 3c
       -0.32311794 1.2650429 1.6810299 0.009820606
000270 3a c3 51 3f 0f 5e df 3e d9 51 08 bf 35 fc f8 bf
       0.8193852 0.4362645 -0.5324989 -1.9451967
000280 84 04 93 3f f3 b9 03 bf de 03 22 c0 c0 d1 46 bf
       1.1485753 -0.5145561 -2.531486 -0.77663803
000290 1f 21 36 bf 49 fb 50 bf 11 29 04 bf 83 56 ae 3e
       -0.7114429 -0.8163343 -0.5162516 0.34050378
0002a0 4f 01 9a 3e da ec ca 3f 9a 35 b9 3f 32 82 e0 3a
       0.30079123 1.5853531 1.4469483 0.0017128645
0002b0 2f 9c c4 bd 3b 2b a4 bf c1 03 a8 bf 9d 5f 8b bf
       -0.09600102 -1.2825693 -1.3126146 -1.0888554
0002c0 5b 82 1c c0 5e fe a0 3e c9 0f 14 3f 40 7c a7 3e
       -2.4454563 0.31444067 0.57836586 0.32711983
0002d0 46 23 94 3f 1c 6c fc 3f ee a6 f9 3d 7d 76 68 bf
       1.1573265 1.9720492 0.121900424 -0.908058
0002e0 da ce 98 3e 71 f0 da 3e 65 5e e3 3e 62 2e b0 bd
       0.29845315 0.42761567 0.44407955 -0.08602597
0002f0 f3 2c 7f 3e 20 2f c1 3f 43 18 6d 3f 3d 5d b6 3f
       0.2491949 1.5092506 0.92615145 1.4247204
000300 01 cd 82 3f cc 7e 8d bf 69 c6 81 bd d8 69 69 3f
       1.0218812 -1.105432 -0.06336672 0.9117713
000310 24 27 87 3f f8 fd 07 3f 24 c4 0a 3f 6f ba 9f bf
       1.055882 0.531219 0.54205537 -1.247877
000320 cf 86 40 bd ab 4c 52 3e 2a 0f 2e bf 6b 68 92 3d
       -0.047003563 0.20537059 -0.6799189 0.071488224
000330 67 f8 2f c0 eb dc f6 3e 5e f1 3b bf 5a 1d ae bf
       -2.7495363 0.48215422 -0.7341517 -1.3602707
000340 e3 6f f7 3e c9 2d 6d bf 1b 28 8c 3f 1f af 33 bf
       0.4832755 -0.9264799 1.0949739 -0.7018909
000350 92 bc a9 bd 97 2d ec 3f f6 90 2e bf 91 4b fe 3e
       -0.0828792 1.8451413 -0.6818994 0.49667028
000360 99 27 56 3f e5 74 a4 bc 7b 67 91 bf e7 32 f9 3e
       0.8365417 -0.02007527 -1.1359705 0.48671648
000370 3a 23 8c 3f 32 33 b0 be a3 0b 1d bf 41 d5 30 bc
       1.094825 -0.3441406 -0.6134588 -0.010793031
000380 bc a0 47 3f c1 9d 96 be c8 45 e0 ba 5e 9a d8 3f
       0.77979636 -0.29417232 -0.001711064 1.6922109
000390 fb 06 5d 3e 71 35 89 3e 1f ab b9 be 96 70 69 3f
       0.21584694 0.26798585 -0.36263368 0.9118742
0003a0 4f 16 b5 bd f7 da ab bf d6 01 1b bf bb a5 3b 3f
       -0.08842146 -1.3426198 -0.60549676 0.7329976
0003b0 07 52 84 bf 79 38 15 3f e0 5a 01 3f f0 42 11 40
       -1.0337533 0.58289295 0.5052929 2.2697105
0003c0 cb 50 57 3f be 8e ab be 13 67 8d be 96 7d cb bf
       0.84107655 -0.3350734 -0.27617702 -1.5897701
0003d0 ff c6 f8 be ce 89 d6 bf 61 10 10 bf 7a f0 97 bf
       -0.48589322 -1.6760805 -0.5627499 -1.1870263
0003e0 28 06 30 ba 62 64 a9 3f d6 00 02 bf d9 8f 9b bd
       -0.00067147845 1.3233759 -0.50782526 -0.07595796
0003f0 f0 64 b1 ba 8d 90 cc be cf ad 46 3f 64 f0 42 3f
       -0.001353411 -0.39954033 0.7760896 0.76148057

cls_token f4 [1, 1, 2]
000000 7a e4 40 bc 70 51 41 be
       -0.011773223 -0.18878722

to_patch_embedding.1.weight f4 [12]
000000 aa 03 80 3f ca 03 80 3f 4a f0 7f 3f 3e 1f 80 3f
       1.0001118 1.0001156 0.99976027 1.0009534
000010 b5 af 7f 3f 5f 1a 80 3f 0e e3 7f 3f b1 00 80 3f
       0.9987748 1.0008048 0.9995583 1.0000211
000020 aa e2 7f 3f 54 f3 7f 3f 85 f3 7f 3f 4e 00 80 3f
       0.99955237 0.99980664 0.99980956 1.0000093

to_patch_embedding.1.bias f4 [12]
000000 10 fe ef ba b5 80 ef ba 66 b8 e0 3a d9 f3 f4 3a
       -0.001830997 -0.0018272611 0.0017144799 0.0018688395
000010 a4 4f e8 ba 2b 18 fd 3a 7a 8f f5 ba ad 35 dc 3a
       -0.001772393 0.0019309571 -0.0018734776 0.0016800665
000020 11 ee f5 ba 1f 5b 04 3b ae 2f e3 ba 3b c3 f4 3a
       -0.0018762966 0.0020195914 -0.0017332935 0.0018673906

to_patch_embedding.2.weight f4 [2, 12]
000000 c7 74 77 be 1a 19 93 be 7d 38 50 bd a5 7e 30 be
       -0.24165641 -0.28730088 -0.05083512 -0.17235811
000010 d6 20 38 bd 75 95 4a 3d 7c e0 c8 bd 4c df b0 bd
       -0.04495319 0.04945894 -0.09808442 -0.086363405
000020 64 e6 01 3e b6 30 8c 3c 95 48 c9 bd 7f 72 0f bd
       0.12685543 0.017113071 -0.09828297 -0.0350213
000030 e8 79 5e 3e 1c ec 6c 3e 16 07 5b be 60 29 92 be
       0.21726191 0.23136944 -0.21389422 -0.28547192
000040 f6 61 42 3e 9f f4 8d bc b0 70 48 3d d1 47 22 be
       0.18982682 -0.017328558 0.048935592 -0.15847708
000050 96 b9 89 3e b0 9a 6a bd 11 a0 f4 3d 69 6e 84 be
       0.26899403 -0.057276428 0.11944593 -0.25865486

to_patch_embedding.2.bias f4 [2]
000000 9f 56 88 3e 40 e5 3a be
       0.26628587 -0.18251514

to_patch_embedding.3.weight f4 [2]
000000 2c 35 81 3f d0 95 80 3f
       1.0094352 1.0045719

to_patch_embedding.3.bias f4 [2]
000000 e1 89 43 bb 5b 20 8d 3b
       -0.002983682 0.0043068356

transformer.norm.weight f4 [2]
000000 42 cc 87 3f 34 2f 71 3f
       1.060921 0.9421265

transformer.norm.bias f4 [2]
000000 d7 f3 9f 3d 0e 5a 96 3d
       0.07810181 0.07341395

transformer.layers.0.0.norm.weight f4 [2]
000000 b5 23 7f 3f 79 b3 7f 3f
       0.9966386 0.9988323

transformer.layers.0.0.norm.bias f4 [2]
000000 65 99 40 bb 99 4d 11 3b
       -0.0029388305 0.0022171496

transformer.layers.0.0.to_qkv.weight f4 [384, 2]
000000 0a 43 0b 3f 20 d4 02 3f 78 c7 b5 be fa 76 13 3d
       0.5439917 0.5110493 -0.35503745 0.036002137
000010 9b a9 0e bd 52 d2 2b 3f 2c a0 a1 be 1d ac c3 be
       -0.034829717 0.671178 -0.31567514 -0.3821725
000020 6e dd 24 3f 1b a4 7b 3e 7c 3a 2c 3f d2 f1 a0 be
       0.64400375 0.2457432 0.6727674 -0.31434494
000030 68 80 1b 3f 26 89 17 3f 1b 0f 0a bf bf b4 21 bf
       0.6074281 0.59193647 -0.539293 -0.6316642
000040 16 49 d8 3d 69 b6 80 3d 78 fc 9d be ae 48 8b bc
       0.10560815 0.06284792 -0.3085668 -0.01700243
000050 e4 37 13 bf 57 be c1 3e 62 98 1f bf 12 64 97 be
       -0.5750716 0.3784053 -0.6234189 -0.29568535
000060 ad 34 b3 bd 13 5b c8 be 21 9e 7c be 4e f6 b5 bd
       -0.087502815 -0.39131984 -0.24669696 -0.088848695
000070 f8 20 0c 3f 3b b7 d4 3e c5 f0 5c 3e 78 af 89 be
       0.54737806 0.41546044 0.21576221 -0.26891685
000080 ea de d4 be 4b b9 c6 3e 45 28 6f 3d ed 1e 34 bf
       -0.4157632 0.38813242 0.058388013 -0.7035969
000090 c6 42 00 bf b9 38 8f 3d 7d 00 dd be 5d 03 5b 3c
       -0.5010189 0.06993241 -0.43164435 0.013367501
0000a0 2c 85 db be 34 66 23 bd dd 06 ca 3e c2 e0 eb bb
       -0.4287504 -0.03989239 0.3945836 -0.007198424
0000b0 65 b8 7d 3c bb 44 1a 3f 01 fb 15 bf cb ea 69 3d
       0.015485858 0.60261124 -0.58586127 0.05710868
0000c0 70 33 2c 3f eb 94 28 3f bf bf b9 be 2f da 32 3e
       0.6726599 0.6585223 -0.36279103 0.17466043
0000d0 8b 7b 87 be a0 74 2d 3e de 91 c4 3e 50 c8 3c 3d
       -0.26461443 0.1693902 0.38392538 0.04608947
0000e0 04 b0 84 3c 45 9a 07 3f 44 a4 bd bd c8 91 76 3e
       0.016197212 0.5296977 -0.09259847 0.24079049
0000f0 9a 9e 68 be e5 37 fd 3e 91 78 12 bf d6 33 f8 3d
       -0.22716752 0.49456707 -0.5721522 0.12119262
000100 82 0a 15 bd 38 5f cf 3d 17 1b 01 bf 44 a5 8d bb
       -0.036386974 0.101255834 -0.5043196 -0.0043226797
000110 41 19 e8 be 51 e6 0b be 51 e4 19 bf 13 bd 79 be
       -0.45331767 -0.13662077 -0.6011401 -0.24388532
000120 c3 8b e2 be 53 25 11 be 5c dc 2f bf f8 44 fb 3e
       -0.44247255 -0.14174394 -0.68695617 0.49076056
000130 28 92 3c 3e 47 2f fb 3d 8b d6 b1 3e c5 bb 09 39
       0.18415129 0.12264877 0.34733996 0.00013135288
000140 01 a4 c0 3e 45 f3 22 3f 3e 17 0b be 8f dc 0e bf
       0.37625125 0.6365245 -0.13583085 -0.55805296
000150 fd 3d 03 3f dc a6 06 bf 32 35 30 bf 59 39 a6 be
       0.5126646 -0.5259836 -0.6883117 -0.32465628
000160 a8 08 15 bf 03 92 d1 3e a1 d8 cf bb 42 61 38 be
       -0.58216333 0.4093171 -0.006342963 -0.18005851
000170 e7 fe f7 be 28 1a 2f 3f df c7 c8 3d a4 20 dc 3e
       -0.48436663 0.68399286 0.098037474 0.42993653
000180 dd 2d c7 be fd 47 85 be af cb ce 3e aa ab cc 3e
       -0.38902178 -0.26031485 0.40389773 0.3997472
000190 f6 87 09 be d3 7e ac 3d 09 21 83 bd 68 49 ad 3e
       -0.13430771 0.08422627 -0.06402785 0.33845067
0001a0 28 ac 15 be 6a d5 a2 be 37 59 2b bf 75 63 f3 be
       -0.14616454 -0.31803447 -0.66933006 -0.47536817
0001b0 d5 66 0d bf c3 1f 99 bb 99 6c f5 3e 86 36 2c 3f
       -0.55235034 -0.0046729757 0.47934416 0.67270696
0001c0 24 64 02 3d cf f3 c5 be 33 52 18 bf e6 cd 51 3e
       0.031833783 -0.38662574 -0.59500426 0.204887
0001d0 f4 23 af 3d 94 3f 17 bf 32 eb a4 be ce b4 07 be
       0.085517794 -0.5908139 -0.3221069 -0.13252565
0001e0 3e a4 2d bf 9b 6b 14 3e 3a b4 8a bd 4a eb 25 3e
       -0.6782874 0.14494173 -0.06772657 0.16203037
0001f0 29 53 9e 3d b3 19 31 3e 48 ab d1 be 20 95 58 3c
       0.07730705 0.1729496 -0.4095099 0.013219148
000200 84 11 a8 3c 8e d8 10 3f 92 3e d0 be 5d f3 11 3e
       0.020516165 0.56580436 -0.40672737 0.14252992
000210 e8 30 a0 3e 2c cc 81 be d7 68 22 3f 47 25 bf be
       0.31287313 -0.25351083 0.6344122 -0.37333128
000220 b6 99 3f 3d ab 3b 2d be 96 63 28 bf 6d b1 f5 be
       0.04677745 -0.16917293 -0.65776956 -0.47986928
000230 e4 e0 8e 3c f9 7b 98 3e 2e d4 8a 3e c5 fe 85 3e
       0.01744122 0.29782084 0.27115005 0.26170936
000240 85 c8 1d be de 29 31 3f 82 3b 9d 3e 85 03 5f be
       -0.15408523 0.6920451 0.30709463 -0.21778686
000250 45 3f ad be 99 84 c7 be 54 29 18 be eb fb 8d bd
       -0.33837333 -0.3896835 -0.14859515 -0.06932815
000260 6e 41 a0 be db db a1 3c b9 38 d7 be b0 3c 28 be
       -0.3129992 0.019758156 -0.42035463 -0.164294
000270 0b 09 03 3f 04 08 9c be bd 04 50 3e 47 e3 18 3f
       0.51185673 -0.30474865 0.20314308 0.597218
000280 af 19 26 bf 35 2f 44 be 19 cd 14 bf d4 da 0a bf
       -0.6488294 -0.19158633 -0.58125454 -0.54240155
000290 94 c3 ab 3e 9e 43 95 be dc 4b 1c bf a6 3b f9 bc
       0.33547652 -0.2915315 -0.6105325 -0.03042395
0002a0 73 63 6a bc 0a f9 da 3d 3b 14 a3 3d 3d 9a a9 be
       -0.014305937 0.10692032 0.07962843 -0.33125487
0002b0 a1 0e 0c 3e cd dd 33 3f 04 cc ad be 8c ce 85 3e
       0.13677455 0.70260316 -0.33944714 0.26134145
0002c0 dd ed 88 3e 9b af 0c bf 6c 9c 9a 3e da b2 10 bf
       0.26743975 -0.5495545 0.30197465 -0.56522906
0002d0 21 35 32 be 79 ed ac be 7f fe 18 be be 9c f2 be
       -0.1740308 -0.33774927 -0.14940833 -0.4738521
0002e0 61 63 26 bf b1 88 14 3f a6 11 57 3e 98 61 a5 be
       -0.6499539 0.58021075 0.21002826 -0.3230102
0002f0 76 47 ee 3e a2 52 a5 bc 18 5c 88 3d 96 c3 8d 3e
       0.46538895 -0.020181004 0.066581905 0.27688283
000300 d5 44 1f 3f 2a c1 44 bd 4e 2c 89 be 73 6a c6 3c
       0.62214404 -0.048035778 -0.26791614 0.02422068
000310 dc d5 50 be ca d8 12 bf cc e4 f8 bd ae d9 83 3e
       -0.20394081 -0.57362044 -0.121530145 0.25752014
000320 0f 41 6b 3e a6 cb 83 3e fb ed 18 bf be 57 23 3f
       0.22974037 0.2574131 -0.5973813 0.6380576
000330 db 83 84 bc f6 a4 3a be b4 b0 f1 3d bf 5c 0b 3d
       -0.016176155 -0.1822699 0.118012816 0.034023996
000340 55 77 fc 3e bb 50 cc be 04 87 b3 be c6 68 79 be
       0.49309793 -0.39905342 -0.35063946 -0.24356374
000350 5b f2 bc be e5 7c 8f 3e de 55 39 3e 06 6f ec be
       -0.36903653 0.28024974 0.18099162 -0.46178454
000360 5d 45 21 bf b0 98 71 be 65 38 2f 3d c5 a1 1b bf
       -0.62996465 -0.23593402 0.04277839 -0.60793716
000370 8d af 33 bf 4c 06 0d 3f 0a 72 8a be a9 74 6b 3e
       -0.70189744 0.55087733 -0.2704013 0.22993721
000380 ba bb 80 be 66 42 f8 be 51 ae 73 3d b0 9d 17 3f
       -0.25143224 -0.48488158 0.059492413 0.5922499
000390 e7 5d 14 bf 53 36 03 be 52 3a c6 be 40 da 5d be
       -0.57955784 -0.12813692 -0.3871637 -0.21665287
0003a0 f3 76 d9 3d bf 0d 89 3e 8a 56 2c bf 3e 53 ff 3e
       0.10618391 0.267683 -0.6731955 0.49868196
0003b0 89 b3 78 bd 31 cb 2b 3f fe 2b 92 be f0 2a 12 3f
       -0.060718093 0.6710692 -0.28549188 0.5709677
0003c0 a2 c9 13 bf 51 31 62 3e d9 3e 41 be 6f 2b c5 3e
       -0.5772954 0.22089125 -0.1887163 0.385097
0003d0 a3 f0 05 3f 90 0a db bd a5 92 b7 be 20 88 e8 3e
       0.5232031 -0.10695374 -0.35854068 0.45416355
0003e0 00 84 4d bd 41 47 64 be b9 0a de bd 94 99 b1 be
       -0.050174713 -0.22292806 -0.10841889 -0.34687483
0003f0 a9 ad a5 bd 48 fc 15 3f 79 51 09 3f af 40 1d bf
       -0.08089764 0.58588076 0.5363994 -0.61426824

transformer.layers.0.0.to_out.0.weight f4 [2, 128]
000000 af 04 16 bc 96 2b fd bb 30 bf 92 bd f8 5c 58 3d
       -0.00915639 -0.007726143 -0.07165372 0.052823037
000010 a9 fb 8b bd 9e 11 2b 3d ef 6d 82 3d 45 a0 24 bd
       -0.0683511 0.041764848 0.063686244 -0.040191907
000020 77 31 85 3d 99 9c 5d 3d d0 69 9a 3c 7d 04 85 3d
       0.06503575 0.05410442 0.018849283 0.06494997
000030 ea 9b 8f bd e2 49 45 bd 83 23 06 3d 01 92 38 3d
       -0.0701216 -0.048166163 0.03274871 0.045061115
000040 50 ae 99 3d 3d 7a 69 3d 40 82 2c 3d 66 4c 48 bd
       0.075039506 0.05700134 0.042116404 -0.048900984
000050 43 24 b5 3d 75 08 7e 3d 00 4c 28 3d 7c 6f 25 3d
       0.08844807 0.062019784 0.041088104 0.040389523
000060 af 4b b0 3d 48 9a f7 bb 9c 4f 70 3d 9f 1e 17 3d
       0.086081855 -0.0075562336 0.05866967 0.036894437
000070 9f 0b 86 bd 9f ae 41 bd 5b a8 a2 3d ab 9b 51 3d
       -0.06545185 -0.047285672 0.079422675 0.051173847
000080 b9 46 8c 3d 9a 04 80 38 ea 78 bc 3c ca fa 67 3a
       0.06849427 6.104373e-05 0.023006875 0.0008849321
000090 3c 41 b5 bd a4 76 6a bd 2b ea f8 3c f9 8d 9f bc
       -0.08850333 -0.05724205 0.030385097 -0.019476878
0000a0 59 2b fb bc 55 20 5a bd 70 9e a4 3d 9b df 52 bd
       -0.030660318 -0.05325349 0.08038032 -0.051482778
0000b0 6e 8e 97 3d cd 54 92 bd 30 45 85 3d 6c 86 7a bb
       0.07400213 -0.07145081 0.06507337 -0.0038227094
0000c0 47 9a 97 3d 8d c0 12 bd 01 45 89 bd 1c 43 bd 3c
       0.07402473 -0.035828162 -0.067026146 0.02310329
0000d0 2a 19 20 bd a4 21 b2 bd 33 a5 4c 3d 29 77 a5 3d
       -0.0390865 -0.08697823 0.049962234 0.080793686
0000e0 4a 30 83 bd a7 0c 69 bc 35 63 2c 3d 98 14 b2 bc
       -0.06405695 -0.014224208 0.0420868 -0.021738335
0000f0 96 6c 94 bd 2a 04 78 3d 8d c0 b1 3d a7 d6 fd 3c
       -0.072472736 0.060550846 0.08679304 0.030986143
000100 f6 40 2f bc 76 91 d6 3c 35 c2 11 3d 9b 98 8a bd
       -0.01069664 0.026192408 0.0355856 -0.067673884
000110 85 fb 66 3c 20 17 c8 bc 97 f9 b2 3d b3 31 ff 3c
       0.014098053 -0.02442509 0.08739012 0.031151628
000120 53 33 11 bc ae e8 3d 3c 33 1a 0e bd b0 76 b1 bd
       -0.008862334 0.01159112 -0.034692954 -0.08665216
000130 73 b7 b4 bc 33 61 be 3d f8 c6 2b 3b 91 77 bc 3c
       -0.022060132 0.09295883 0.0026211124 0.023006232
000140 51 f5 91 3d d4 e2 b3 3d 43 a8 87 3d 78 96 81 bd
       0.071268685 0.087834984 0.0662389 -0.06327528
000150 93 2e 74 bd b6 8f 03 bd f9 39 0e bd 47 47 32 3c
       -0.05961473 -0.032119475 -0.034723256 0.010881252
000160 5c 1b 8e bd ca 3a 02 3d 03 96 1d bd bd a2 59 bd
       -0.06938812 0.031794347 -0.03847314 -0.053133715
000170 d0 b2 83 bd 4b 67 90 bd 12 c2 85 3d 13 de af 3c
       -0.0643059 -0.070509516 0.065311566 0.021468198
000180 3d db 4e bd 5b 95 83 bd de 7d 3a 3d f3 ef 59 bd
       -0.05050205 -0.06424972 0.045530193 -0.05320735
000190 4d 32 37 3d 7b 50 e6 3c 2a 9a 85 3d 57 2c 35 bd
       0.044725705 0.028114548 0.06523545 -0.04423174
0001a0 b3 63 92 3d c1 05 c7 3b ab 86 3b bd c1 f3 19 bd
       0.07147922 0.006073684 -0.045782726 -0.037585977
0001b0 7e 79 4b bd be dd af 3d a4 4f 27 bd 93 07 f0 3c
       -0.04967641 0.08587216 -0.040847436 0.029300487
0001c0 32 ab a3 bc d2 f3 f9 bb 14 88 86 bc c6 94 ae bc
       -0.019979093 -0.0076279426 -0.016422309 -0.021311175
0001d0 65 a6 a8 3d 62 77 3f bd 6d 89 48 bd 93 94 ba bd
       0.08234862 -0.04674471 -0.048959184 -0.091103695
0001e0 06 b5 04 bd 7a fb 45 bb c1 81 e0 bc 05 0b e8 3c
       -0.0323992 -0.0030209706 -0.027405621 0.028325567
0001f0 13 68 f6 bc e6 e0 13 3d 1e f7 80 3d 50 34 02 bd
       -0.030078923 0.03610315 0.06297134 -0.03178817
000200 8e 0f 37 3d 11 a3 4c 3d e7 ea 7e bd a0 89 06 3d
       0.04469257 0.0499602 -0.06223574 0.032846093
000210 29 d9 23 bd b4 e5 70 3c 74 1e be bc 26 be b6 bd
       -0.040002022 0.014703203 -0.02320788 -0.08922987
000220 12 98 59 bd cd c4 15 3d 35 3b 82 bd 97 05 8e bb
       -0.05312354 0.036564637 -0.06358949 -0.0043341625
000230 60 33 a7 bd 8f 1e 95 bd fa c3 7c 3d f9 f5 83 bd
       -0.08164096 -0.07281219 0.061710335 -0.064434
000240 ff 55 30 3d 77 bb 26 bd cd b2 30 3d d2 2a 6d 3d
       0.043050762 -0.040706124 0.043139268 0.057902165
000250 03 ab 86 3d 2b 18 e8 bc d0 15 a6 bd f0 67 f0 bc
       0.06575587 -0.028331837 -0.08109629 -0.029346436
000260 3b e2 db 3b fd 55 42 3d 60 87 5a bd 64 f9 0d 3d
       0.0067103184 0.047445286 -0.05335176 0.034661666
000270 31 fc 57 bc ae 8a a5 3d 30 a0 83 bd 70 a2 0d 3d
       -0.013182686 0.08083092 -0.06427038 0.03457874
000280 f5 b1 01 3d a2 0d 54 3d 2f 89 0f 3d 45 7b 62 3c
       0.031663854 0.051770814 0.035042938 0.013823335
000290 b3 c3 a2 bd 76 78 a9 bd d9 42 2e 3d ef df 89 bd
       -0.07947483 -0.08274929 0.04254422 -0.06732165
0002a0 d5 74 64 bd 50 a6 90 3d be 9b be bc 8b e0 37 bd
       -0.055775482 0.070629716 -0.023267623 -0.044891875
0002b0 68 04 d4 bc d6 51 6c 3d 3c 93 43 3d 3c f0 a8 3d
       -0.025881007 0.057695232 0.047747836 0.08248946
0002c0 87 40 ad bd fa b5 a3 bd e0 81 9e 3d 7e 3b 19 3d
       -0.08459573 -0.07993694 0.077396154 0.03741025
0002d0 8d 5f 93 bd b1 4a 89 3d a8 b0 b1 3d d1 c5 53 3d
       -0.07195959 0.067036994 0.08676273 0.051702324
0002e0 07 12 f8 3c f8 15 ce 3c 5a dc 31 bd b7 f6 9f 3d
       0.030282034 0.02515696 -0.043423034 0.07810729
0002f0 14 2c 49 bd 2e ca 69 3d 37 39 04 3d 46 70 ab bd
       -0.0491143 0.05707758 0.032281127 -0.08371024
000300 63 aa 41 3d 6c 2f 77 3d 2d 89 25 bd 4a 87 6f 3d
       0.047281634 0.06034796 -0.040414024 0.05847863
000310 38 43 a1 3d d7 3e c2 bd 7c 93 aa bd 11 22 7b 3c
       0.07874149 -0.09484642 -0.08328912 0.015327946
000320 41 1c e6 3c 13 e6 41 bc 10 2b 42 3d 8a 65 3d bd
       0.028089644 -0.011834639 0.04740435 -0.046239413
000330 f7 c1 94 bd 6c 95 92 bc 01 58 a6 bd e0 21 2e bb
       -0.07263558 -0.017893516 -0.08122254 -0.0026570484
000340 25 d8 55 bd 73 67 01 3d 5f 71 72 3d fa 42 04 bc
       -0.052208085 0.031592797 0.05919015 -0.008072609
000350 42 c6 59 bc 04 69 9d bd e8 50 aa 3d 0b f4 4e bb
       -0.013291897 -0.07686046 0.08316213 -0.0031578566
000360 db 2b bd bc 32 5c ad 3d 84 ce 86 3c 18 99 14 3b
       -0.023092201 0.084648505 0.016455896 0.0022674259
000370 d0 5e 02 3b c6 86 eb 3b 5b d6 96 3c af 5e c1 bc
       0.0019892938 0.007187697 0.01841276 -0.023604719
000380 17 3b b2 bd b5 e7 09 3d 84 40 83 3c e0 3d b0 bd
       -0.08702677 0.03366824 0.016021974 -0.08605552
000390 9a b8 21 bd 7f 24 d5 3c 2d f7 0e 3d bb 5c bb 3d
       -0.03948269 0.02601838 0.034903694 0.09148546
0003a0 19 c9 9b bd f0 63 0c 3b 76 f2 3a 3d a7 4d 1f 3d
       -0.07606716 0.0021421872 0.045641385 0.038892414
0003b0 1c cd 99 bd 78 13 a5 bd 39 40 9c bd fe a1 34 bd
       -0.07509825 -0.08060354 -0.07629437 -0.0440998
0003c0 a5 2f 49 bd 22 aa 1f bd fd 92 73 bb 9d ca a1 bc
       -0.049117703 -0.03898061 -0.003716647 -0.019749934
0003d0 f7 f5 21 bd b2 bd 47 3c 88 51 c4 3d 41 f9 70 3d
       -0.03954121 0.012191223 0.09585863 0.058831457
0003e0 c7 7e 5c 3d 14 18 87 3d 74 12 8a 3c 5c 76 ae 3d
       0.05383184 0.065963894 0.016854502 0.08518669
0003f0 ed 6b bd 3c e3 a5 6c bc db c5 2b bd 51 a1 76 bd
       0.023122752 -0.014443847 -0.041936737 -0.060212437

transformer.layers.0.0.to_out.0.bias f4 [2]
000000 08 87 63 3c 6c 5c 71 bd
       0.013887174 -0.05892603

transformer.layers.0.1.net.0.weight f4 [2]
000000 ca c3 80 3f 30 48 7d 3f
       1.005975 0.98938274

transformer.layers.0.1.net.0.bias f4 [2]
000000 7d 69 ac 3b e4 75 2f bc
       0.0052615986 -0.01070926

transformer.layers.0.1.net.1.weight f4 [128, 2]
000000 d3 ab 66 be 2c 6c ba be ea 01 c7 be 67 13 fb 3e
       -0.22526483 -0.36410654 -0.38868648 0.4903824
000010 3d 52 2f bf 6c 31 50 3e 51 cd bd 3d 5e 81 25 3f
       -0.6848486 0.20331353 0.092676766 0.64650524
000020 de 3a 29 be 14 e0 9a 3b ea e5 2b 3f f7 e1 9d 3e
       -0.16526362 0.004726419 0.67147696 0.3083646
000030 20 99 08 bf 81 ab 16 3f b0 f5 18 3d 67 96 82 3e
       -0.5335865 0.58855444 0.03734368 0.25505373
000040 ca 1a 14 3f 1e 27 66 3e 5f 8d bd be ed 5e 8e be
       0.57853377 0.2247586 -0.3702192 -0.27806798
000050 0f e1 bd bb c8 51 af 3d 57 e7 b0 be 22 5d b2 3e
       -0.0057946513 0.085605204 -0.34551498 0.3483668
000060 91 bb 0f be 5c 0f 17 3e 4e 23 c6 be ae 20 31 3f
       -0.14036395 0.14751953 -0.3869881 0.6919049
000070 0d cd 2a bf 7d de 10 bf 80 4a a7 3e 56 ec 9a be
       -0.6671913 -0.5658949 0.32674026 -0.30258435
000080 14 60 0b 3f df ce 60 3e c1 d1 17 bf b1 66 f7 be
       0.5444348 0.21953915 -0.59304434 -0.48320535
000090 05 70 6b bc 76 6a 17 3f ab ff 21 bf 22 31 43 3d
       -0.014369969 0.5914682 -0.63280743 0.04765428
0000a0 e6 80 0b 3d 2b 09 01 bf a2 ff 9d be dd d6 98 3e
       0.034058474 -0.50404614 -0.30859095 0.29851428
0000b0 d4 97 78 be 19 0b 23 3d 87 9f 5e 3e 6c e2 f4 be
       -0.24276668 0.039805505 0.21740542 -0.47828996
0000c0 9f 5b 1a 3f ec e6 39 be 45 86 c3 3e 63 7d a9 be
       0.6029605 -0.18154496 0.38188377 -0.33103475
0000d0 32 c3 22 3f db a3 3e bd 14 c3 82 3e 06 df 03 be
       0.63579094 -0.046542984 0.25539458 -0.12878045
0000e0 d3 a2 1a 3f 2b 7f 1e bf d7 9f eb 3e 79 d9 a3 3e
       0.604047 -0.6191279 0.46020386 0.32001856
0000f0 fd 53 99 bd 5a 7d 3e bd cf 33 05 3f dd 51 06 3f
       -0.074867226 -0.046506263 0.5203218 0.52468663
000100 aa f2 06 bf f9 ef 01 3f bd 64 11 3f eb b4 01 be
       -0.52714026 0.50756794 0.5679434 -0.12666671
000110 09 0b 83 be 94 f7 05 be 1d da 4a be d9 8e d1 3d
       -0.25594357 -0.13082725 -0.19809766 0.10232324
000120 83 e8 82 3e 19 18 9d 3d c4 d7 80 3d bc ff 6d 3d
       0.25568017 0.07670612 0.06291154 0.058105215
000130 32 f6 2b 3f 21 33 55 3e cd 34 20 bd 8e bf 28 be
       0.6717254 0.20820285 -0.039112855 -0.16479322
000140 a3 28 7c 3d 7f 40 be be 54 b3 20 be b8 14 a3 3d
       0.06156219 -0.37158582 -0.15693408 0.07962936
000150 9d 27 3f 3e b3 4c f9 3e 9a 33 27 bd 5d 59 0d bf
       0.18667455 0.4869133 -0.040820695 -0.5521448
000160 01 e6 07 bf 26 8a 66 3d 44 d5 71 be 9f f2 72 be
       -0.53085333 0.056284092 -0.2361651 -0.23725365
000170 48 a9 35 bf e4 e7 f2 3d c3 15 53 3e cc 51 2e bf
       -0.7096143 0.11860636 0.2061377 -0.6809356
000180 12 b8 b5 3e 94 5b 23 bf e5 24 30 be 47 ed 9b 3e
       0.35491997 -0.6381161 -0.17201574 0.30454466
000190 1c cb bc be 4c 7e 0c bf 18 a5 5d bd ec 04 c6 be
       -0.3687371 -0.54880214 -0.054112524 -0.3867563
0001a0 8b 8c 1e bf 3e 23 33 3d 8a d0 3b 3e d9 85 a1 bc
       -0.619332 0.04373478 0.1834127 -0.019717144
0001b0 41 6c ec 3c 06 9b 9b 3d b8 29 1f 3e d1 69 e7 3d
       0.028860213 0.07597928 0.15543258 0.1129948
0001c0 83 90 bb be 56 ab 0a bf f7 40 2c bf 1b 02 b0 be
       -0.3663369 -0.5416769 -0.6728663 -0.34376606
0001d0 61 50 eb 3e 4f 05 1b 3f 8e df 44 3e 06 29 3e 3e
       0.45959762 0.60554975 0.19225904 0.18570337
0001e0 b6 cf 32 bf 55 bd 02 be 11 c8 03 3f c2 fc 15 bf
       -0.6984819 -0.12767537 0.5147715 -0.585888
0001f0 ca 0e a5 3c a4 5b 2e 3f 41 64 f2 bd c0 48 82 be
       0.020148654 0.6810858 -0.11835528 -0.2544613
000200 2d dc 0f be 03 93 bb 3e e5 69 dd 3d 67 b3 c2 be
       -0.14048834 0.366356 0.108112134 -0.38027498
000210 c6 8a 2a bf d4 01 2f be fc 01 8b be 7f e8 fa 3e
       -0.66618 -0.17090541 -0.2714995 0.49005505
000220 3f 8f 05 3f 72 89 eb be 83 7c 2a 3f 06 bd 04 3f
       0.521717 -0.460033 0.6659624 0.51850927
000230 3a 8a 06 bf ff ee 7f be 11 26 36 bf 09 df 62 3d
       -0.52554667 -0.24993514 -0.71151835 0.055388484
000240 2d d3 e3 bb cc a1 d0 3e d1 d7 93 be bd 02 0a bf
       -0.0069526643 0.4074844 -0.28875592 -0.5391043
000250 99 a3 0c be a4 f4 31 3f 16 a0 e4 3e ad 47 28 3c
       -0.13734283 0.69513917 0.44653386 0.010270995
000260 e0 0a a2 3e a7 ae 1f bf 35 48 cf 3e 47 ed bc 3e
       0.31648922 -0.62375873 0.40484777 0.36899778
000270 22 f3 8c 3e 20 ca ae be 21 de 12 bf 1f d6 0b bf
       0.27529246 -0.34138584 -0.5737019 -0.546236
000280 f3 70 0a bf 19 bc 31 be 73 0f d4 bd b7 43 99 bd
       -0.54078597 -0.1735691 -0.10354509 -0.07483619
000290 e8 66 68 3e c7 0c 97 3e 0d 71 bc be 11 bf cc 3c
       0.22695506 0.29501936 -0.36805 0.024993451
0002a0 27 ce 84 3e 75 79 d9 3d 89 6d 2f 3e 7b a7 20 3f
       0.25938532 0.10618869 0.17131628 0.62755555
0002b0 3c 75 99 3e 52 ad c7 bd 55 9e 0e 3f a4 9a 05 3f
       0.29972255 -0.09749855 0.55710346 0.5218909
0002c0 68 9e 13 3e 5d dd 49 3e 23 6e 56 3e 46 5d a6 be
       0.14415896 0.1971335 0.20940451 -0.32493037
0002d0 4b 66 00 3f 42 aa a7 bd fa 3d cd bc a0 99 c8 be
       0.50156087 -0.08186771 -0.025053967 -0.39179707
0002e0 a8 4e f2 3e 21 8b cb be 1d fe b2 3e 1c a2 f7 be
       0.47325635 -0.39754584 0.34959498 -0.48365867
0002f0 78 15 48 bd 4f 05 15 3f 16 84 ea bd 4a 9f 2f 3f
       -0.0488486 0.58211225 -0.11450975 0.6860243
000300 a8 64 35 3e 41 93 29 bf 72 dc 26 3f 11 9b 31 be
       0.17714179 -0.66240317 0.6518012 -0.1734431
000310 31 9a aa be ac 08 ee be 3d 48 98 bd 3b 75 e6 be
       -0.33320764 -0.4649099 -0.07435653 -0.45011315
000320 2b 2c 5c be a5 e7 e2 be 9e 13 94 be 56 11 03 3f
       -0.21501224 -0.44317356 -0.28921217 0.5119833
000330 7f 24 79 3e 02 74 07 bf bc c4 e6 3e a7 7c c2 be
       0.24330328 -0.5291139 0.4507197 -0.37985727
000340 41 de 0e 3f 0e 03 05 3f 9d a0 d2 be 07 8a 05 bf
       0.5580788 0.51957786 -0.41138163 -0.5216374
000350 b2 f0 d0 3e f5 b4 ed be 5b 5c 98 3e 8a ac 02 be
       0.40808636 -0.46427122 0.29757962 -0.12761131
000360 01 b5 07 bf 51 47 1f bf 8b 96 33 3f bb 8c be bd
       -0.53010565 -0.62218195 0.70151585 -0.09304186
000370 c2 f0 9f be aa d6 34 be 58 8a e2 3e 37 42 4e be
       -0.3123837 -0.17660013 0.44246173 -0.20142446
000380 fe 62 ce 3d 87 80 08 3f 66 d3 ae bd bd a2 69 be
       0.10077475 0.5332112 -0.08536415 -0.22815986
000390 37 37 c5 3e a0 39 31 3f fd 38 60 be d6 60 30 bb
       0.38518688 0.69228554 -0.2189674 -0.0026913187
0003a0 2b 6b ca 3e f6 d6 c2 be 20 db 85 3e 65 b1 31 3f
       0.39534888 -0.38054627 0.26143742 0.6941131
0003b0 68 28 04 3f bf 79 01 3f 9b 7a 98 3e 1b ef 0a 3f
       0.51624155 0.50576395 0.2978104 0.54271096
0003c0 6d b0 85 3e 5f 80 de be c3 8f 00 bf 34 96 ce 3e
       0.26111165 -0.43457314 -0.5021936 0.4034897
0003d0 80 55 08 bf a9 8d 1d bf 12 46 d9 be 7e 13 8c 3d
       -0.5325546 -0.6154428 -0.42436272 0.06839655
0003e0 80 73 25 3f 9d 6b d3 3e 48 2f 9e 3e a8 2f ad bd
       0.64629364 0.4129304 0.30895448 -0.08456355
0003f0 1f 18 ce 3e e0 67 8b 3d d6 26 2c be d7 4e 18 bf
       0.40252778 0.06806922 -0.1681169 -0.594953

transformer.layers.0.1.net.1.bias f4 [128]
000000 9d 27 ea 3e 74 86 48 be c6 30 2b be d7 9d 00 bf
       0.45733348 -0.1958254 -0.16717824 -0.50240844
000010 e3 13 1b 3f 6a 81 27 3f bf ab a1 3e f2 2d 1e bf
       0.6057722 0.65431845 0.31576344 -0.61788857
000020 17 26 15 3d b8 5b c9 3b 14 c7 2a 3f 89 f3 eb 3d
       0.03641328 0.006144967 0.6671002 0.1152106
000030 98 8e 6d 3e 5a bd e0 be 1d 53 18 3f 97 fe 72 be
       0.23198926 -0.43894464 0.5950182 -0.23729931
000040 df c6 e2 be aa 73 0e 3f 3e 9a 34 3f 20 1d b0 3e
       -0.44292352 0.5564524 0.70547855 0.3439722
000050 6a f8 84 be 74 b9 df bd 5f dd 13 bf 7c f6 c8 3e
       -0.25970775 -0.10924044 -0.5775966 0.39250553
000060 33 36 18 3f 8b 60 6f be 31 ba 2f 3f dc db f2 bd
       0.594577 -0.23376672 0.6864348 -0.11858341
000070 f7 5c 19 3f d8 9a 21 bf 56 c9 09 bf dd b7 af be
       0.5990748 -0.631269 -0.5382284 -0.34319964
000080 c9 8d 15 3f 78 8e ed 3d c0 66 11 bf 69 e9 0f 3f
       0.5841947 0.115994394 -0.5679741 0.5621553
000090 8b dd 2b 3e a8 96 46 3e 3c 1e 17 3b f4 eb 09 bf
       0.1678373 0.19393408 0.0023058793 -0.5387566
0000a0 5d 46 10 bf 43 0b 2c 3f c8 92 1b 3f 0b 60 ee 3e
       -0.56357366 0.67204684 0.60770845 0.4655765
0000b0 5c ef 8a 3c cd dc d6 be d5 63 4a 3e 8c dd 11 bd
       0.016959839 -0.41965333 0.19764645 -0.035611674
0000c0 e5 fc 10 3f 1d 9d 0a be 0a cb 1e bf 8d e6 a0 3c
       0.56635886 -0.13536496 -0.62028563 0.019641185
0000d0 61 0d a2 3e 24 59 23 3f 5a 79 7b 3e c9 9b 26 bf
       0.31650832 0.6380789 0.2455801 -0.6508146
0000e0 78 83 31 bf b0 2c 25 bf 0d 35 fb 3d 1b 8e b6 be
       -0.6934123 -0.6452131 0.12265978 -0.35655293
0000f0 1b fd 1a bf 79 a3 fa 3d 7c 64 c3 3e 9a 75 62 3e
       -0.6054246 0.12238211 0.381626 0.22115174
000100 99 78 fa be d4 45 a7 be b4 ab 73 3e a9 01 69 bd
       -0.48920134 -0.32670462 0.23795968 -0.05688635
000110 bb b4 4b 3d 5d 3c fa 3e 45 76 83 3e 09 f7 2d 3f
       0.049732905 0.4887418 0.2567617 0.6795507
000120 9a 07 3a be 24 48 b5 3e a3 9c b5 be fb a3 5a 3d
       -0.18166962 0.354066 -0.35471067 0.05337904
000130 5d 3d 36 3f 18 42 95 bd 5c 13 11 bf 05 e4 de be
       0.7118738 -0.07287997 -0.56670165 -0.4353334
000140 32 fa c5 3d 74 b7 54 3e 09 7d c8 be 83 8a d0 be
       0.096668616 0.20773107 -0.39157894 -0.40730676
000150 ff 00 ea be 9f c0 27 bf b8 37 d4 be b5 b9 88 be
       -0.45703885 -0.6552829 -0.4144876 -0.26704183
000160 73 c2 f3 3e d4 7d 29 3f a9 16 33 3f 5d d5 1f bf
       0.4760929 0.66207623 0.6995645 -0.6243494
000170 26 b0 04 bf b3 e0 01 bf c4 2e 5f be d3 a5 f3 be
       -0.5183128 -0.5073349 -0.21795183 -0.4758745
000180 33 39 ee 3c 05 2f ef be c3 f4 b2 3e 39 0a 2a 3f
       0.02908001 -0.4671556 0.34952363 0.6642185
000190 b5 65 22 bf 8d e8 e2 3e b4 a7 1f bf 9a ea 07 bf
       -0.6343644 0.44318047 -0.6236527 -0.5309235
0001a0 34 32 2e 3e 83 d5 54 3e c3 88 77 3e 68 13 b5 bd
       0.17011338 0.20784573 0.24173264 -0.08841592
0001b0 29 e8 b7 be 62 79 7c be 88 ef e3 3d 15 27 2f 3e
       -0.35919312 -0.24655679 0.11129671 0.17104752
0001c0 ff 33 b2 3d 89 54 0b bf 0b c9 23 bf a0 87 16 bf
       0.08701324 -0.54425865 -0.6397864 -0.588007
0001d0 f2 54 68 be f9 c9 96 be fd 64 eb be 8c f9 d0 be
       -0.22688654 -0.29450968 -0.45975485 -0.4081539
0001e0 7e 5d c9 be 85 d5 49 bd 06 38 2c bf 91 05 c1 bd
       -0.3932914 -0.049275894 -0.67272985 -0.0942489
0001f0 8c 30 ef be f5 45 4e be e9 ee be 3e 8b b6 23 3f
       -0.46716726 -0.20143874 0.3729165 0.63950413

transformer.layers.0.1.net.4.weight f4 [2, 128]
000000 c4 e7 21 bd 0b d6 2e bd 71 99 67 3d 84 bd 96 bd
       -0.03952767 -0.042684596 0.056542818 -0.07360366
000010 7a 6f 62 3d 1a a1 2f 3a f9 d0 c1 bc e3 d0 a3 3b
       0.055282094 0.0006699726 -0.023659216 0.0049992665
000020 59 59 9e bd 1a 88 30 3d aa e9 93 3d cd ff bc bc
       -0.077318855 0.043098547 0.07222302 -0.023071194
000030 9b 84 1c 3c 7a 56 a9 3d ca 78 cd bc c8 7b 48 bc
       0.0095531 0.08268447 -0.02508201 -0.012236543
000040 74 fa 45 3d 52 d4 5a bd ae 38 31 bd 9c e8 b7 bd
       0.048334554 -0.05342514 -0.043266945 -0.089799136
000050 f3 15 a8 3d ef e8 89 bd 16 b4 06 bc 96 16 35 3d
       0.082073115 -0.06733882 -0.008221647 0.044210993
000060 da 9e 52 3d 19 0f 3a 3d f3 50 46 bd 12 8e ba 3b
       0.051421024 0.045424554 -0.048417043 0.0056932056
000070 53 c8 92 bd 66 1a a0 3d 1a 43 22 bd 80 9a 66 bd
       -0.07167115 0.07817535 -0.039614774 -0.056299686
000080 e4 e1 7c 3d 68 d9 92 bd bc bb 85 bd ad 41 e9 3c
       0.061738864 -0.07170373 -0.06529948 0.0284737
000090 8c 4b 35 3d 2e cc 60 3d 68 9c 1a 3d f6 9a 71 3d
       0.0442615 0.05488222 0.037746817 0.058985673
0000a0 7c b7 20 3d 65 1b a1 3d 1c 49 83 bc f9 f6 2e bd
       0.039237484 0.07866553 -0.016026072 -0.042716
0000b0 53 8a 54 bd 48 92 a8 3c 56 e8 2f bd ee 95 85 bd
       -0.05188973 0.020577565 -0.042946182 -0.065227374
0000c0 90 14 59 bc 4a 42 11 3d 07 e3 a3 bd 6b c9 38 3d
       -0.013249531 0.03546361 -0.080022864 0.045113962
0000d0 33 02 3f 3d 56 fc 9c 3c b3 25 e2 3c 98 40 a1 3c
       0.046632957 0.019163292 0.027605867 0.019684121
0000e0 f7 75 06 bb 62 41 7d 3d 62 46 00 bc 97 80 aa bb
       -0.002051709 0.061829932 -0.007829281 -0.0052033174
0000f0 83 0b 40 3d 7a fb 45 3d f0 9b a2 3d e8 14 9b 3c
       0.04688598 0.04833553 0.07939899 0.018930867
000100 9a 63 07 bd b4 52 41 3c b7 45 c0 bc 9d 87 99 bd
       -0.03305397 0.011799503 -0.023470743 -0.07496569
000110 74 7b 16 bd 10 92 c9 bc 99 3f ab bd ea e4 95 bd
       -0.036738828 -0.02460578 -0.0836174 -0.073190525
000120 fa 0b 9a 3d 50 33 91 3d c0 3e 89 bd 30 4d d3 bb
       0.075218156 0.07089865 -0.06701422 -0.0064484105
000130 69 a2 97 3d 06 84 3f bd 09 68 a6 3c 46 20 6c 3c
       0.07404024 -0.046756767 0.02031328 0.014411991
000140 41 88 80 3d 03 fc 79 bd d2 37 62 bd d2 cb 71 bd
       0.06275988 -0.061031353 -0.055229016 -0.05903227
000150 ff 42 50 3d 7b d1 2f bc 37 08 e9 3c ba 83 b0 3d
       0.050845142 -0.010731096 0.0284463 0.08618875
000160 c5 f6 89 bd 39 36 5a bd e7 a3 51 bd 7d 18 6a bd
       -0.06736521 -0.053274367 -0.0511817 -0.05715226
000170 df d2 a2 bd 41 d2 32 bd 21 0f 66 3d a8 3b 51 bd
       -0.07950377 -0.043657545 0.05616677 -0.051082283
000180 13 67 36 bc f9 d9 a6 bd 99 f0 b6 bd fc 00 23 3d
       -0.011132973 -0.08147044 -0.08932609 0.03979586
000190 0b 76 47 bd c1 18 db bb e9 27 90 bd 3e 6c 9b bd
       -0.04869656 -0.0066863005 -0.07038862 -0.07589005
0001a0 3c 28 4c bd 14 eb 06 3d 13 c0 44 3c 37 3a 8c 3d
       -0.049843058 0.03293903 0.012008685 0.06847041
0001b0 03 4e 61 3d 5f ae 0c 3d 41 dc 04 3d 7a 01 84 3d
       0.05500604 0.03434598 0.032436613 0.06445594
0001c0 0e 78 9c 3d 78 df ae 3d 2e b3 29 3d ea c8 77 3d
       0.07640086 0.08538717 0.041430645 0.06049434
0001d0 c8 b9 a3 bc 4b 7d 99 bd b0 57 8e bd 94 f3 7b 3d
       -0.019986048 -0.07494601 -0.06950319 0.06151159
0001e0 72 ff 1c 3d 9e 3e 4c bd e4 bc 4f 3c b5 27 aa bd
       0.03832955 -0.049864404 0.012679312 -0.08308355
0001f0 19 85 a3 3d b9 8f 7c 3d 57 c1 e7 ba bf 85 8d 3c
       0.07984371 0.061660502 -0.0017681521 0.01727569
000200 1f 58 8a bd 48 4f 87 3d f8 24 25 3d 8a aa 6f 3d
       -0.06755089 0.066069186 0.04031846 0.058512248
000210 8a 67 2c bd 57 3a 50 3d 76 4c 53 3d 97 c2 3e 3d
       -0.04209093 0.050836887 0.05158659 0.046572294
000220 c4 9d 1c bd f1 57 7d 3d 58 5b f4 bc 71 13 a9 bd
       -0.038236395 0.061851446 -0.029828712 -0.08255661
000230 aa 3d 0e bc 2c fa a3 bd 3d 06 cc bc 6e 1d 7c bd
       -0.008681694 -0.08006701 -0.024905318 -0.061551504
000240 29 2b 93 b8 38 aa 88 bd 38 1d 95 bc 39 a8 78 bb
       -7.0175454e-05 -0.06673092 -0.01820241 -0.0037942065
000250 e9 c9 a7 3c 1c 5f a1 bd 24 16 95 bd 20 83 9c bd
       0.02048202 -0.07879469 -0.072796136 -0.076421976
000260 bd a0 bd 3d c7 01 0c bd f3 e4 32 bd 17 2d db 3b
       0.09259174 -0.034181383 -0.043675374 0.0066887247
000270 9f f8 3a 3d 63 07 33 3d a4 24 b8 bd ac 06 49 3c
       0.04564726 0.043708216 -0.08991364 0.012269657
000280 81 f3 5e 3d 1b 80 98 3d b1 14 14 bd bf e0 55 3d
       0.054431442 0.07446309 -0.036152545 0.052216288
000290 87 fa 34 3d 70 d7 9b 3c 23 28 8e bd 7b f4 4f 3d
       0.044184234 0.019023627 -0.06941249 0.050770264
0002a0 f2 a2 64 3d a8 33 49 3d e9 cc 84 3b 8f 28 2c bd
       0.05581946 0.04912153 0.0040527475 -0.042030867
0002b0 cd df 81 3d 2f 79 a2 3d 22 4d 0a bd 55 15 05 bd
       0.06341515 0.0793327 -0.033764966 -0.032491047
0002c0 fa a2 16 bc a7 3d 54 3c f0 68 92 bd b4 0c a6 3b
       -0.00919413 0.012954152 -0.071489215 0.0050674323
0002d0 92 27 c4 bc 84 87 f7 bc df 6a 95 bd fb d9 50 bd
       -0.02394465 -0.030215986 -0.07295775 -0.050989132
0002e0 51 5a 75 3d 84 15 27 3d 5b d0 6b 3d ec cc 4b bd
       0.059900586 0.040792003 0.05757175 -0.049755976
0002f0 5e 1c 6c bd 4c a3 ae 3d 6f 46 69 3d 33 11 94 bd
       -0.05764424 0.0852724 0.056951936 -0.07229843
000300 bc 8d 8a bd 5f 27 a2 bd ac b2 1b 3c dc 2c 86 bd
       -0.06765315 -0.07917666 0.009503048 -0.06551525
000310 b2 6a 07 3d bf dc 68 bc 5c 09 07 bd 39 de 99 bd
       0.033060737 -0.014212786 -0.03296791 -0.07513089
000320 ab df da bc 8d be 9d 3d e7 59 a2 bd 63 a7 bd 3c
       -0.026717981 0.0770236 -0.07927304 0.023151105
000330 7d 13 4c 3d 0c fe 57 bd bc be 90 bd a9 4b 43 3d
       0.049823273 -0.052732512 -0.0706763 0.047679577
000340 51 c3 53 3a b7 cc 1b bd 5f 84 29 bd 28 83 3a bc
       0.00080781156 -0.03803703 -0.041386005 -0.011383809
000350 86 96 0c bd 8d c0 4f bd 9e ee a9 3d 18 9d 6c bd
       -0.034323238 -0.05072074 0.08297466 -0.057767004
000360 f0 67 b4 3d 39 4d 83 3d 4b 0c 9a 3d 76 cb 5b bd
       0.08808887 0.064112134 0.07521876 -0.053660832
000370 45 cc 32 bd dd 0b 02 3d 1a 9b a2 bb 9f b1 9e bc
       -0.043651838 0.031749595 -0.004962337 -0.019371806
000380 9b 26 cc bc b7 90 50 3d 78 97 1c 3c 72 9f 47 bd
       -0.024920752 0.05091926 0.009557597 -0.048736043
000390 fc 20 eb 39 8a 65 60 bd c5 fc 4b bd 05 a6 8f 3d
       0.00044847268 -0.054784335 -0.049801607 0.070140876
0003a0 a0 f7 39 bd ca 87 99 bd 83 e0 58 bc 6f b5 ba bd
       -0.04540217 -0.07496603 -0.0132371215 -0.09116637
0003b0 83 e4 08 3c ed fd 5b bd b1 60 39 bd 0c 54 5e 3c
       0.008355263 -0.05370896 -0.045258228 0.013569843
0003c0 6e bd 20 3c e5 66 1a bd d7 58 3e bd 8c 78 88 bd
       0.009810789 -0.037695784 -0.046471443 -0.066636175
0003d0 8a ef 7f bd e0 c8 82 bc 1b 34 89 bd 26 59 0c 3b
       -0.0624843 -0.015964925 -0.066993915 0.0021415441
0003e0 8c f9 3b 3d b9 c2 ac 3d c3 25 05 3d a6 f0 f4 bb
       0.045892283 0.08435578 0.032506716 -0.0074749766
0003f0 36 43 07 3d 8c a5 62 3d 35 f1 18 3d ae b9 85 3d
       0.03302308 0.05533366 0.037339408 0.06529556

transformer.layers.0.1.net.4.bias f4 [2]
000000 f8 ee 5e 3d 37 ab 38 3d
       0.054427117 0.04508516

transformer.layers.1.0.norm.weight f4 [2]
000000 e4 a8 7f 3f 2d d3 7f 3f
       0.9986708 0.99931604

transformer.layers.1.0.norm.bias f4 [2]
000000 89 8f de bb 75 8c b4 3b
       -0.006792013 0.005509908

transformer.layers.1.0.to_qkv.weight f4 [384, 2]
000000 d1 56 11 bf 1c 43 b5 3e 2b 60 ab 3d 62 71 8c 3e
       -0.56773096 0.35402763 0.08367952 0.27430254
000010 df b7 c2 3e 8b 88 58 3e 48 a7 2c bf 90 b7 26 bf
       0.38030908 0.21145837 -0.6744275 -0.65123844
000020 a1 13 11 bf 14 26 64 3e d5 fb 32 3d d8 df 07 3f
       -0.56670576 0.2228015 0.043697197 0.53075933
000030 03 06 a4 3d 3b 84 04 bf 4b c2 17 3f cd 7e 18 3f
       0.08008959 -0.5176427 0.5928084 0.5956848
000040 b6 aa a2 3e 72 51 e2 3e 51 ef 02 bf d3 94 2d bf
       0.31770867 0.44202763 -0.5114642 -0.6780521
000050 4b 0a a5 3e cc 8c 5f be f4 5d f0 be 8c 2e 1a 3f
       0.32234415 -0.21831053 -0.4694668 0.60227275
000060 56 ce 42 3e 8f 6d d2 3e 58 90 f9 3e 63 e0 c9 3e
       0.19024023 0.41099212 0.48742938 0.39429006
000070 aa 3c a2 3b 1e 63 f2 3e 77 23 12 3f 2c 2c b4 bd
       0.0049510794 0.47341245 0.57085365 -0.087974876
000080 c9 85 08 3e f1 ad 02 bf 0b 1a a5 be ab db 99 3e
       0.13332285 -0.51046664 -0.32246432 0.30050406
000090 c0 e6 17 3f cd b2 0c bf cb e6 20 3f 26 e5 0d 3e
       0.5933647 -0.5496033 0.6285216 0.13856944
0000a0 83 2a 08 3f b1 f4 c5 3e fe 1d 98 be b5 e2 25 bf
       0.5318987 0.38663247 -0.29710382 -0.6479905
0000b0 59 5a 7b 3e a3 40 22 bf 7f db 76 be e0 63 f5 be
       0.24546184 -0.6337988 -0.24107169 -0.4792776
0000c0 f5 d6 27 be 3d e9 09 bf 02 db 0c bd ed ca 1d bf
       -0.16390593 -0.5387152 -0.03438855 -0.61637765
0000d0 4a 5c 30 bf fc b5 1a bf 74 98 29 bf ce 88 b3 3e
       -0.6889082 -0.60433936 -0.6624825 0.3506531
0000e0 49 26 fe 3d ef 27 22 3f bd 9b 7c 3e e3 85 0f 3f
       0.12409646 0.63342184 0.24668784 0.5606367
0000f0 9d df d7 3e c1 3c 07 bf 6f f0 2f bf b9 34 c5 be
       0.4216279 -0.5282708 -0.6872625 -0.38516787
000100 55 b8 87 be d7 56 0c bf c5 18 e1 be cc fa 31 be
       -0.26507822 -0.5482001 -0.4396421 -0.17380828
000110 4a 88 d1 bd f2 42 26 bc 34 38 29 3e 48 02 08 bf
       -0.10231073 -0.010147797 0.16525346 -0.5312848
000120 88 de 34 bd 28 00 b7 3e ee 83 7b 3e 0f 8a 1d 3d
       -0.044157535 0.35742307 0.24562046 0.03846174
000130 03 33 68 3c 98 8a b1 3b 9b 3b 1f 3e 6c 3a 32 3f
       0.014172318 0.005418133 0.15550081 0.69620395
000140 c2 99 bf 3e b9 46 1f 3f 3e 75 d0 bd 29 0b 9f 3e
       0.37421995 0.6221729 -0.10178612 0.31063202
000150 99 e1 6e 3e 73 c3 e7 3e 02 14 0b bf 4e c7 ce be
       0.23328246 0.45266303 -0.54327404 -0.40386432
000160 7f ff 75 be 49 92 ac be 96 7a ee 3e 1c 5f a9 3e
       -0.24023245 -0.33705357 0.465779 0.33080375
000170 88 bb 0e 3f 02 e2 03 3e 4a b2 51 3e 97 29 d8 be
       0.557549 0.12879184 0.20478168 -0.4221923
000180 40 5e 27 bd b6 55 10 3e 73 09 cc bd 3c ea 91 be
       -0.04086137 0.14095196 -0.0996274 -0.2849902
000190 f9 40 93 3e d5 6c d5 3e 40 e9 bc 3e c7 d9 7e be
       0.28760508 0.41684595 0.36896706 -0.24887763
0001a0 2f 4b e1 bd fd 32 cf 3e 95 c2 88 3e 09 24 52 3e
       -0.11000668 0.40468588 0.26710954 0.20521559
0001b0 e0 80 30 3e ef 76 b0 3e a7 05 4a 3e 9e dd 5d ba
       0.17236662 0.3446574 0.19728719 -0.00084635045
0001c0 9b 49 2f 3d ff b0 2f 3f f8 65 25 3f 03 10 08 3e
       0.042794805 0.6862945 0.64608717 0.13287358
0001d0 1f 9d db be 62 0c a0 3e a5 68 ea be de fa ae 3e
       -0.4289331 0.31259447 -0.45782962 0.3417577
0001e0 53 5e d9 be 97 f8 09 3e e8 49 53 be b9 e6 2e 3f
       -0.42454776 0.13473736 -0.20633662 0.68320805
0001f0 42 21 01 bf d8 6f 1a bf 58 c7 ae 3e 4a f2 9f 3b
       -0.5044137 -0.6032691 0.34136462 0.004881178
000200 2f 1e be 3e 6a 06 b4 3e 20 a9 75 3e 79 12 8c 3c
       0.37132403 0.35161144 0.23990297 0.017098652
000210 20 a0 f1 3d 1d 3b 1e 3e 24 9f 07 bf 66 1e fa be
       0.117981195 0.15452237 -0.52977204 -0.48851317
000220 be ba 4b 3c 07 43 82 bc 5b 58 c5 3e da 74 1a 3f
       0.0124346595 -0.015901102 0.38543972 0.6033455
000230 a2 c5 9b 3e 9a c3 29 3e f3 2d 31 bf 16 58 1e 3f
       0.3042422 0.16578522 -0.6921074 0.6185316
000240 40 b2 12 bf fc 64 b2 3e ff 87 97 be 3a eb 6e 3e
       -0.5730324 0.3484267 -0.29595944 0.2333192
000250 78 a5 45 3d ae 85 4f 3e 11 87 f0 3c 08 c2 a9 be
       0.048253506 0.20265839 0.02936128 -0.33155847
000260 05 13 81 3e 81 51 ac 3e a7 6a 0a bf 88 0d 4f 3d
       0.25209823 0.33655933 -0.5406899 0.050550014
000270 e6 3d 02 bf 3b 80 27 3e 22 01 5c 3e f3 59 60 be
       -0.508757 0.1635751 0.21484807 -0.21909313
000280 47 02 05 3f 46 ed b7 be bb f1 26 bf a3 87 4b be
       0.519566 -0.35923213 -0.652126 -0.1987596
000290 78 48 8c be da ba 2b 3f 6a 00 f0 be 65 8a f1 3d
       -0.2739904 0.6708199 -0.46875316 0.11793975
0002a0 d7 3b 29 3f 9c ad 12 bf ba 86 60 bd 0d ae 04 3f
       0.66106933 -0.57296157 -0.054815985 0.5182808
0002b0 ce f4 27 3f 9b 13 85 3d a3 44 5a be c7 12 69 3e
       0.6560792 0.0649788 -0.21315245 0.22761069
0002c0 d4 16 84 3e b6 c9 97 be d0 98 15 3f de 9f 90 be
       0.25798666 -0.2964608 0.584363 -0.2824697
0002d0 82 57 36 bf 76 9a 2b bf c8 5d 30 3f 3d 65 1b bf
       -0.71227276 -0.67032564 0.688931 -0.6070135
0002e0 1e e1 24 3f 68 ed 2e 3d 4c be c8 3e 01 34 a7 3e
       0.64406 0.042706877 0.39207685 0.32656863
0002f0 ad f4 20 bf 49 8a 01 bf 59 24 5c bc 7f 66 08 3f
       -0.62873346 -0.5060163 -0.0134364 0.53281397
000300 44 aa 94 be 8b 14 e9 3e 93 ae bb be 36 d5 c4 3e
       -0.29036152 0.45523486 -0.36656627 0.38443917
000310 9c 26 8f 3d af 56 1e bf 16 92 52 bd 22 82 b1 3e
       0.06989786 -0.6185102 -0.05140885 0.34669596
000320 45 59 19 bf be 3d 00 3f 81 d0 7e 3e c4 79 a1 3e
       -0.5990184 0.5009421 0.24884225 0.31538212
000330 c6 b4 88 3e 0e e7 07 3f 6c ef 04 bf da 90 1a be
       0.2670042 0.53086936 -0.5192783 -0.15094319
000340 26 ba 00 bf 3b 65 2a 3f 33 76 94 be 4b 48 d7 be
       -0.5028404 0.66560715 -0.2899643 -0.42047343
000350 9a 1b ff be b0 9e b4 3e 3d eb 35 be 5a 44 bf 3b
       -0.49825746 0.3527732 -0.17765518 0.0058370056
000360 b9 d4 18 bf 6a 42 86 be 02 3b cf 3e 51 b8 0d 3f
       -0.5969959 -0.26222545 0.40474707 0.5535937
000370 7e a7 23 3e 59 a2 f4 be 0f 5d 1b 3f 52 5a a6 3d
       0.15981862 -0.4778011 0.6068887 0.08122696
000380 f7 55 fa be 47 af 30 3e 20 8b a0 bd 88 8c 02 bf
       -0.4889371 0.17254363 -0.07839036 -0.50995684
000390 58 2a f2 3e f8 51 25 3f 1b b8 4b bd 6d e5 06 bf
       0.4729793 0.645782 -0.049736124 -0.52693826
0003a0 fa 2e 08 bf 25 fa ce bd 09 5e ef be 49 a9 ea be
       -0.5319668 -0.10106305 -0.4675143 -0.4583228
0003b0 4e 31 20 3e e5 b2 2c 3f b9 f6 16 3f aa 84 b8 3a
       0.15643808 0.6746047 0.5897022 0.0014077623
0003c0 f6 3f 4d be 21 db da be 9d 9f 99 be 87 64 f7 be
       -0.2004393 -0.42745307 -0.30004588 -0.48318884
0003d0 f4 b1 a2 3e d1 04 33 bf 2b 2f 20 3f 46 10 92 be
       0.31776392 -0.69929224 0.6257197 -0.2852804
0003e0 bc c4 ca 3e 03 86 89 3e 6a 93 42 be 1b 9a 65 be
       0.3960322 0.26860055 -0.19001547 -0.22422068
0003f0 f6 f7 65 be 82 be b6 3d 65 99 1d be 9c 3a bb be
       -0.22457871 0.08923055 -0.15390547 -0.36568153
